…
I0511 18:25:26.072953 31642 image_seg_data_layer.cpp:46] Opening file /dvol/road-discovery/data/lmdb/dlcrf_index.txt
I0511 18:25:26.076957 31642 image_seg_data_layer.cpp:63] Shuffling data
I0511 18:25:26.077342 31642 image_seg_data_layer.cpp:68] A total of 1382 images.
I0511 18:25:26.085273 31642 image_seg_data_layer.cpp:137] output data size: 1,3,640,640
I0511 18:25:26.085309 31642 image_seg_data_layer.cpp:141] output label size: 1,1,640,640
I0511 18:25:26.085314 31642 image_seg_data_layer.cpp:145] output data_dim size: 1,1,1,2
I0511 18:25:26.085955 31642 net.cpp:151] Setting up rawdata
I0511 18:25:26.085976 31642 net.cpp:158] Top shape: 1 3 640 640 (1228800)
I0511 18:25:26.085988 31642 net.cpp:158] Top shape: 1 1 640 640 (409600)
I0511 18:25:26.085995 31642 net.cpp:158] Top shape: 1 1 1 2 (2)
I0511 18:25:26.086016 31642 net.cpp:166] Memory required for data: 6553608
I0511 18:25:26.086028 31642 layer_factory.hpp:77] Creating layer patch_transformer1
I0511 18:25:26.086061 31642 net.cpp:107] Creating Layer patch_transformer1
I0511 18:25:26.086087 31642 net.cpp:455] patch_transformer1 <- input_data
I0511 18:25:26.086102 31642 net.cpp:455] patch_transformer1 <- input_label
I0511 18:25:26.086110 31642 net.cpp:412] patch_transformer1 -> data
I0511 18:25:26.086122 31642 net.cpp:412] patch_transformer1 -> label
I0511 18:25:26.086143 31642 patch_transformer_layer.cpp:11] transformer input: 1, 3, 640, 640
I0511 18:25:26.086153 31642 patch_transformer_layer.cpp:11] transformer input: 1, 1, 640, 640
I0511 18:25:26.086165 31642 net.cpp:151] Setting up patch_transformer1
I0511 18:25:26.086187 31642 net.cpp:158] Top shape: 1 3 449 449 (604803)
I0511 18:25:26.086195 31642 net.cpp:158] Top shape: 1 1 449 449 (201601)
I0511 18:25:26.086220 31642 net.cpp:166] Memory required for data: 9779224
I0511 18:25:26.086227 31642 layer_factory.hpp:77] Creating layer data_patch_transformer1_0_split
I0511 18:25:26.086236 31642 net.cpp:107] Creating Layer data_patch_transformer1_0_split
I0511 18:25:26.086243 31642 net.cpp:455] data_patch_transformer1_0_split <- data
I0511 18:25:26.086252 31642 net.cpp:412] data_patch_transformer1_0_split -> data_patch_transformer1_0_split_0
I0511 18:25:26.086344 31642 net.cpp:412] data_patch_transformer1_0_split -> data_patch_transformer1_0_split_1
I0511 18:25:26.086367 31642 net.cpp:412] data_patch_transformer1_0_split -> data_patch_transformer1_0_split_2
I0511 18:25:26.086408 31642 net.cpp:151] Setting up data_patch_transformer1_0_split
I0511 18:25:26.086431 31642 net.cpp:158] Top shape: 1 3 449 449 (604803)
I0511 18:25:26.086441 31642 net.cpp:158] Top shape: 1 3 449 449 (604803)
I0511 18:25:26.086457 31642 net.cpp:158] Top shape: 1 3 449 449 (604803)
I0511 18:25:26.086483 31642 net.cpp:166] Memory required for data: 17036860
I0511 18:25:26.086495 31642 layer_factory.hpp:77] Creating layer label_patch_transformer1_1_split
I0511 18:25:26.086524 31642 net.cpp:107] Creating Layer label_patch_transformer1_1_split
I0511 18:25:26.086535 31642 net.cpp:455] label_patch_transformer1_1_split <- label
I0511 18:25:26.086555 31642 net.cpp:412] label_patch_transformer1_1_split -> label_patch_transformer1_1_split_0
I0511 18:25:26.086581 31642 net.cpp:412] label_patch_transformer1_1_split -> label_patch_transformer1_1_split_1
I0511 18:25:26.086596 31642 net.cpp:412] label_patch_transformer1_1_split -> label_patch_transformer1_1_split_2
I0511 18:25:26.086627 31642 net.cpp:412] label_patch_transformer1_1_split -> label_patch_transformer1_1_split_3
I0511 18:25:26.086647 31642 net.cpp:151] Setting up label_patch_transformer1_1_split
I0511 18:25:26.086681 31642 net.cpp:158] Top shape: 1 1 449 449 (201601)
I0511 18:25:26.086693 31642 net.cpp:158] Top shape: 1 1 449 449 (201601)
I0511 18:25:26.086704 31642 net.cpp:158] Top shape: 1 1 449 449 (201601)
I0511 18:25:26.086735 31642 net.cpp:158] Top shape: 1 1 449 449 (201601)
I0511 18:25:26.086745 31642 net.cpp:166] Memory required for data: 20262476
I0511 18:25:26.086779 31642 layer_factory.hpp:77] Creating layer conv1_1
I0511 18:25:26.086832 31642 net.cpp:107] Creating Layer conv1_1
I0511 18:25:26.086844 31642 net.cpp:455] conv1_1 <- data_patch_transformer1_0_split_0
I0511 18:25:26.086859 31642 net.cpp:412] conv1_1 -> conv1_1
I0511 18:25:26.087838 31642 net.cpp:151] Setting up conv1_1
I0511 18:25:26.087882 31642 net.cpp:158] Top shape: 1 64 449 449 (12902464)
I0511 18:25:26.087908 31642 net.cpp:166] Memory required for data: 71872332
I0511 18:25:26.088582 31642 layer_factory.hpp:77] Creating layer relu1_1
I0511 18:25:26.088634 31642 net.cpp:107] Creating Layer relu1_1
I0511 18:25:26.088642 31642 net.cpp:455] relu1_1 <- conv1_1
I0511 18:25:26.088651 31642 net.cpp:398] relu1_1 -> conv1_1 (in-place)
I0511 18:25:26.088662 31642 net.cpp:151] Setting up relu1_1
I0511 18:25:26.088686 31642 net.cpp:158] Top shape: 1 64 449 449 (12902464)
I0511 18:25:26.088693 31642 net.cpp:166] Memory required for data: 123482188
I0511 18:25:26.088717 31642 layer_factory.hpp:77] Creating layer conv1_2
I0511 18:25:26.088728 31642 net.cpp:107] Creating Layer conv1_2
I0511 18:25:26.088747 31642 net.cpp:455] conv1_2 <- conv1_1
I0511 18:25:26.088754 31642 net.cpp:412] conv1_2 -> conv1_2
I0511 18:25:26.089380 31642 net.cpp:151] Setting up conv1_2
I0511 18:25:26.089419 31642 net.cpp:158] Top shape: 1 64 449 449 (12902464)
I0511 18:25:26.089440 31642 net.cpp:166] Memory required for data: 175092044
I0511 18:25:26.089453 31642 layer_factory.hpp:77] Creating layer relu1_2
I0511 18:25:26.089475 31642 net.cpp:107] Creating Layer relu1_2
I0511 18:25:26.089495 31642 net.cpp:455] relu1_2 <- conv1_2
I0511 18:25:26.089519 31642 net.cpp:398] relu1_2 -> conv1_2 (in-place)
I0511 18:25:26.089529 31642 net.cpp:151] Setting up relu1_2
I0511 18:25:26.089536 31642 net.cpp:158] Top shape: 1 64 449 449 (12902464)
I0511 18:25:26.089542 31642 net.cpp:166] Memory required for data: 226701900
I0511 18:25:26.089563 31642 layer_factory.hpp:77] Creating layer pool1
I0511 18:25:26.089591 31642 net.cpp:107] Creating Layer pool1
I0511 18:25:26.089602 31642 net.cpp:455] pool1 <- conv1_2
I0511 18:25:26.089615 31642 net.cpp:412] pool1 -> pool1
I0511 18:25:26.089654 31642 net.cpp:151] Setting up pool1
I0511 18:25:26.089713 31642 net.cpp:158] Top shape: 1 64 225 225 (3240000)
I0511 18:25:26.089723 31642 net.cpp:166] Memory required for data: 239661900
I0511 18:25:26.089738 31642 layer_factory.hpp:77] Creating layer conv2_1
I0511 18:25:26.089752 31642 net.cpp:107] Creating Layer conv2_1
I0511 18:25:26.089776 31642 net.cpp:455] conv2_1 <- pool1
I0511 18:25:26.089814 31642 net.cpp:412] conv2_1 -> conv2_1
I0511 18:25:26.090076 31642 net.cpp:151] Setting up conv2_1
I0511 18:25:26.090113 31642 net.cpp:158] Top shape: 1 128 225 225 (6480000)
I0511 18:25:26.090140 31642 net.cpp:166] Memory required for data: 265581900
I0511 18:25:26.090159 31642 layer_factory.hpp:77] Creating layer relu2_1
I0511 18:25:26.090194 31642 net.cpp:107] Creating Layer relu2_1
I0511 18:25:26.090204 31642 net.cpp:455] relu2_1 <- conv2_1
I0511 18:25:26.090210 31642 net.cpp:398] relu2_1 -> conv2_1 (in-place)
I0511 18:25:26.090219 31642 net.cpp:151] Setting up relu2_1
I0511 18:25:26.090226 31642 net.cpp:158] Top shape: 1 128 225 225 (6480000)
I0511 18:25:26.090232 31642 net.cpp:166] Memory required for data: 291501900
I0511 18:25:26.090252 31642 layer_factory.hpp:77] Creating layer conv2_2
I0511 18:25:26.090262 31642 net.cpp:107] Creating Layer conv2_2
I0511 18:25:26.090268 31642 net.cpp:455] conv2_2 <- conv2_1
I0511 18:25:26.090276 31642 net.cpp:412] conv2_2 -> conv2_2
I0511 18:25:26.090730 31642 net.cpp:151] Setting up conv2_2
I0511 18:25:26.090773 31642 net.cpp:158] Top shape: 1 128 225 225 (6480000)
I0511 18:25:26.090795 31642 net.cpp:166] Memory required for data: 317421900
I0511 18:25:26.090816 31642 layer_factory.hpp:77] Creating layer relu2_2
I0511 18:25:26.090838 31642 net.cpp:107] Creating Layer relu2_2
I0511 18:25:26.090858 31642 net.cpp:455] relu2_2 <- conv2_2
I0511 18:25:26.090888 31642 net.cpp:398] relu2_2 -> conv2_2 (in-place)
I0511 18:25:26.090898 31642 net.cpp:151] Setting up relu2_2
I0511 18:25:26.090904 31642 net.cpp:158] Top shape: 1 128 225 225 (6480000)
I0511 18:25:26.090910 31642 net.cpp:166] Memory required for data: 343341900
I0511 18:25:26.090916 31642 layer_factory.hpp:77] Creating layer pool2
I0511 18:25:26.090924 31642 net.cpp:107] Creating Layer pool2
I0511 18:25:26.090956 31642 net.cpp:455] pool2 <- conv2_2
I0511 18:25:26.090975 31642 net.cpp:412] pool2 -> pool2
I0511 18:25:26.090986 31642 net.cpp:151] Setting up pool2
I0511 18:25:26.091032 31642 net.cpp:158] Top shape: 1 128 113 113 (1634432)
I0511 18:25:26.091038 31642 net.cpp:166] Memory required for data: 349879628
I0511 18:25:26.091044 31642 layer_factory.hpp:77] Creating layer conv3_1
I0511 18:25:26.091068 31642 net.cpp:107] Creating Layer conv3_1
I0511 18:25:26.091078 31642 net.cpp:455] conv3_1 <- pool2
I0511 18:25:26.091096 31642 net.cpp:412] conv3_1 -> conv3_1
I0511 18:25:26.091639 31642 net.cpp:151] Setting up conv3_1
I0511 18:25:26.091670 31642 net.cpp:158] Top shape: 1 256 113 113 (3268864)
I0511 18:25:26.091675 31642 net.cpp:166] Memory required for data: 362955084
I0511 18:25:26.091687 31642 layer_factory.hpp:77] Creating layer relu3_1
I0511 18:25:26.091711 31642 net.cpp:107] Creating Layer relu3_1
I0511 18:25:26.091729 31642 net.cpp:455] relu3_1 <- conv3_1
I0511 18:25:26.091751 31642 net.cpp:398] relu3_1 -> conv3_1 (in-place)
I0511 18:25:26.091760 31642 net.cpp:151] Setting up relu3_1
I0511 18:25:26.091768 31642 net.cpp:158] Top shape: 1 256 113 113 (3268864)
I0511 18:25:26.091773 31642 net.cpp:166] Memory required for data: 376030540
I0511 18:25:26.091794 31642 layer_factory.hpp:77] Creating layer conv3_2
I0511 18:25:26.091805 31642 net.cpp:107] Creating Layer conv3_2
I0511 18:25:26.091812 31642 net.cpp:455] conv3_2 <- conv3_1
I0511 18:25:26.091820 31642 net.cpp:412] conv3_2 -> conv3_2
I0511 18:25:26.092669 31642 net.cpp:151] Setting up conv3_2
I0511 18:25:26.092694 31642 net.cpp:158] Top shape: 1 256 113 113 (3268864)
I0511 18:25:26.092697 31642 net.cpp:166] Memory required for data: 389105996
I0511 18:25:26.092710 31642 layer_factory.hpp:77] Creating layer relu3_2
I0511 18:25:26.092731 31642 net.cpp:107] Creating Layer relu3_2
I0511 18:25:26.092751 31642 net.cpp:455] relu3_2 <- conv3_2
I0511 18:25:26.092793 31642 net.cpp:398] relu3_2 -> conv3_2 (in-place)
I0511 18:25:26.092803 31642 net.cpp:151] Setting up relu3_2
I0511 18:25:26.092824 31642 net.cpp:158] Top shape: 1 256 113 113 (3268864)
I0511 18:25:26.092831 31642 net.cpp:166] Memory required for data: 402181452
I0511 18:25:26.092852 31642 layer_factory.hpp:77] Creating layer conv3_3
I0511 18:25:26.092876 31642 net.cpp:107] Creating Layer conv3_3
I0511 18:25:26.092885 31642 net.cpp:455] conv3_3 <- conv3_2
I0511 18:25:26.092898 31642 net.cpp:412] conv3_3 -> conv3_3
I0511 18:25:26.093798 31642 net.cpp:151] Setting up conv3_3
I0511 18:25:26.093829 31642 net.cpp:158] Top shape: 1 256 113 113 (3268864)
I0511 18:25:26.093835 31642 net.cpp:166] Memory required for data: 415256908
I0511 18:25:26.093858 31642 layer_factory.hpp:77] Creating layer relu3_3
I0511 18:25:26.093883 31642 net.cpp:107] Creating Layer relu3_3
I0511 18:25:26.093909 31642 net.cpp:455] relu3_3 <- conv3_3
I0511 18:25:26.093917 31642 net.cpp:398] relu3_3 -> conv3_3 (in-place)
I0511 18:25:26.093940 31642 net.cpp:151] Setting up relu3_3
I0511 18:25:26.093948 31642 net.cpp:158] Top shape: 1 256 113 113 (3268864)
I0511 18:25:26.093953 31642 net.cpp:166] Memory required for data: 428332364
I0511 18:25:26.093972 31642 layer_factory.hpp:77] Creating layer pool3
I0511 18:25:26.093984 31642 net.cpp:107] Creating Layer pool3
I0511 18:25:26.094004 31642 net.cpp:455] pool3 <- conv3_3
I0511 18:25:26.094029 31642 net.cpp:412] pool3 -> pool3
I0511 18:25:26.094041 31642 net.cpp:151] Setting up pool3
I0511 18:25:26.094050 31642 net.cpp:158] Top shape: 1 256 57 57 (831744)
I0511 18:25:26.094056 31642 net.cpp:166] Memory required for data: 431659340
I0511 18:25:26.094079 31642 layer_factory.hpp:77] Creating layer conv4_1
I0511 18:25:26.094094 31642 net.cpp:107] Creating Layer conv4_1
I0511 18:25:26.094128 31642 net.cpp:455] conv4_1 <- pool3
I0511 18:25:26.094162 31642 net.cpp:412] conv4_1 -> conv4_1
I0511 18:25:26.096230 31642 net.cpp:151] Setting up conv4_1
I0511 18:25:26.096308 31642 net.cpp:158] Top shape: 1 512 57 57 (1663488)
I0511 18:25:26.096318 31642 net.cpp:166] Memory required for data: 438313292
I0511 18:25:26.096334 31642 layer_factory.hpp:77] Creating layer relu4_1
I0511 18:25:26.096349 31642 net.cpp:107] Creating Layer relu4_1
I0511 18:25:26.096359 31642 net.cpp:455] relu4_1 <- conv4_1
I0511 18:25:26.096396 31642 net.cpp:398] relu4_1 -> conv4_1 (in-place)
I0511 18:25:26.096426 31642 net.cpp:151] Setting up relu4_1
I0511 18:25:26.096436 31642 net.cpp:158] Top shape: 1 512 57 57 (1663488)
I0511 18:25:26.096446 31642 net.cpp:166] Memory required for data: 444967244
I0511 18:25:26.096452 31642 layer_factory.hpp:77] Creating layer conv4_2
I0511 18:25:26.096475 31642 net.cpp:107] Creating Layer conv4_2
I0511 18:25:26.096482 31642 net.cpp:455] conv4_2 <- conv4_1
I0511 18:25:26.096498 31642 net.cpp:412] conv4_2 -> conv4_2
I0511 18:25:26.100136 31642 net.cpp:151] Setting up conv4_2
I0511 18:25:26.100179 31642 net.cpp:158] Top shape: 1 512 57 57 (1663488)
I0511 18:25:26.100188 31642 net.cpp:166] Memory required for data: 451621196
I0511 18:25:26.100231 31642 layer_factory.hpp:77] Creating layer relu4_2
I0511 18:25:26.100261 31642 net.cpp:107] Creating Layer relu4_2
I0511 18:25:26.100273 31642 net.cpp:455] relu4_2 <- conv4_2
I0511 18:25:26.100282 31642 net.cpp:398] relu4_2 -> conv4_2 (in-place)
I0511 18:25:26.100293 31642 net.cpp:151] Setting up relu4_2
I0511 18:25:26.100317 31642 net.cpp:158] Top shape: 1 512 57 57 (1663488)
I0511 18:25:26.100327 31642 net.cpp:166] Memory required for data: 458275148
I0511 18:25:26.100337 31642 layer_factory.hpp:77] Creating layer conv4_3
I0511 18:25:26.100349 31642 net.cpp:107] Creating Layer conv4_3
I0511 18:25:26.100375 31642 net.cpp:455] conv4_3 <- conv4_2
I0511 18:25:26.100396 31642 net.cpp:412] conv4_3 -> conv4_3
I0511 18:25:26.104212 31642 net.cpp:151] Setting up conv4_3
I0511 18:25:26.104250 31642 net.cpp:158] Top shape: 1 512 57 57 (1663488)
I0511 18:25:26.104259 31642 net.cpp:166] Memory required for data: 464929100
I0511 18:25:26.104281 31642 layer_factory.hpp:77] Creating layer relu4_3
I0511 18:25:26.104336 31642 net.cpp:107] Creating Layer relu4_3
I0511 18:25:26.104343 31642 net.cpp:455] relu4_3 <- conv4_3
I0511 18:25:26.104365 31642 net.cpp:398] relu4_3 -> conv4_3 (in-place)
I0511 18:25:26.104377 31642 net.cpp:151] Setting up relu4_3
I0511 18:25:26.104384 31642 net.cpp:158] Top shape: 1 512 57 57 (1663488)
I0511 18:25:26.104390 31642 net.cpp:166] Memory required for data: 471583052
I0511 18:25:26.104396 31642 layer_factory.hpp:77] Creating layer pool4
I0511 18:25:26.104423 31642 net.cpp:107] Creating Layer pool4
I0511 18:25:26.104431 31642 net.cpp:455] pool4 <- conv4_3
I0511 18:25:26.104444 31642 net.cpp:412] pool4 -> pool4
I0511 18:25:26.104478 31642 net.cpp:151] Setting up pool4
I0511 18:25:26.104491 31642 net.cpp:158] Top shape: 1 512 57 57 (1663488)
I0511 18:25:26.104518 31642 net.cpp:166] Memory required for data: 478237004
I0511 18:25:26.104526 31642 layer_factory.hpp:77] Creating layer conv5_1
I0511 18:25:26.104553 31642 net.cpp:107] Creating Layer conv5_1
I0511 18:25:26.104565 31642 net.cpp:455] conv5_1 <- pool4
I0511 18:25:26.104620 31642 net.cpp:412] conv5_1 -> conv5_1
I0511 18:25:26.108009 31642 net.cpp:151] Setting up conv5_1
I0511 18:25:26.108048 31642 net.cpp:158] Top shape: 1 512 57 57 (1663488)
I0511 18:25:26.108057 31642 net.cpp:166] Memory required for data: 484890956
I0511 18:25:26.108079 31642 layer_factory.hpp:77] Creating layer relu5_1
I0511 18:25:26.108103 31642 net.cpp:107] Creating Layer relu5_1
I0511 18:25:26.108129 31642 net.cpp:455] relu5_1 <- conv5_1
I0511 18:25:26.108139 31642 net.cpp:398] relu5_1 -> conv5_1 (in-place)
I0511 18:25:26.108163 31642 net.cpp:151] Setting up relu5_1
I0511 18:25:26.108171 31642 net.cpp:158] Top shape: 1 512 57 57 (1663488)
I0511 18:25:26.108177 31642 net.cpp:166] Memory required for data: 491544908
I0511 18:25:26.108184 31642 layer_factory.hpp:77] Creating layer conv5_2
I0511 18:25:26.108193 31642 net.cpp:107] Creating Layer conv5_2
I0511 18:25:26.108216 31642 net.cpp:455] conv5_2 <- conv5_1
I0511 18:25:26.108238 31642 net.cpp:412] conv5_2 -> conv5_2
I0511 18:25:26.111663 31642 net.cpp:151] Setting up conv5_2
I0511 18:25:26.111719 31642 net.cpp:158] Top shape: 1 512 57 57 (1663488)
I0511 18:25:26.111727 31642 net.cpp:166] Memory required for data: 498198860
I0511 18:25:26.111754 31642 layer_factory.hpp:77] Creating layer relu5_2
I0511 18:25:26.111783 31642 net.cpp:107] Creating Layer relu5_2
I0511 18:25:26.111809 31642 net.cpp:455] relu5_2 <- conv5_2
I0511 18:25:26.111820 31642 net.cpp:398] relu5_2 -> conv5_2 (in-place)
I0511 18:25:26.111846 31642 net.cpp:151] Setting up relu5_2
I0511 18:25:26.111855 31642 net.cpp:158] Top shape: 1 512 57 57 (1663488)
I0511 18:25:26.111861 31642 net.cpp:166] Memory required for data: 504852812
I0511 18:25:26.111866 31642 layer_factory.hpp:77] Creating layer conv5_3
I0511 18:25:26.111886 31642 net.cpp:107] Creating Layer conv5_3
I0511 18:25:26.111907 31642 net.cpp:455] conv5_3 <- conv5_2
I0511 18:25:26.111915 31642 net.cpp:412] conv5_3 -> conv5_3
I0511 18:25:26.116914 31642 net.cpp:151] Setting up conv5_3
I0511 18:25:26.116977 31642 net.cpp:158] Top shape: 1 512 57 57 (1663488)
I0511 18:25:26.116986 31642 net.cpp:166] Memory required for data: 511506764
I0511 18:25:26.116998 31642 layer_factory.hpp:77] Creating layer relu5_3
I0511 18:25:26.117024 31642 net.cpp:107] Creating Layer relu5_3
I0511 18:25:26.117049 31642 net.cpp:455] relu5_3 <- conv5_3
I0511 18:25:26.117082 31642 net.cpp:398] relu5_3 -> conv5_3 (in-place)
I0511 18:25:26.117097 31642 net.cpp:151] Setting up relu5_3
I0511 18:25:26.117121 31642 net.cpp:158] Top shape: 1 512 57 57 (1663488)
I0511 18:25:26.117128 31642 net.cpp:166] Memory required for data: 518160716
I0511 18:25:26.117135 31642 layer_factory.hpp:77] Creating layer pool5
I0511 18:25:26.117144 31642 net.cpp:107] Creating Layer pool5
I0511 18:25:26.117151 31642 net.cpp:455] pool5 <- conv5_3
I0511 18:25:26.117179 31642 net.cpp:412] pool5 -> pool5
I0511 18:25:26.117208 31642 net.cpp:151] Setting up pool5
I0511 18:25:26.117236 31642 net.cpp:158] Top shape: 1 512 57 57 (1663488)
I0511 18:25:26.117274 31642 net.cpp:166] Memory required for data: 524814668
I0511 18:25:26.117288 31642 layer_factory.hpp:77] Creating layer pool5_pool5_0_split
I0511 18:25:26.117314 31642 net.cpp:107] Creating Layer pool5_pool5_0_split
I0511 18:25:26.117336 31642 net.cpp:455] pool5_pool5_0_split <- pool5
I0511 18:25:26.117360 31642 net.cpp:412] pool5_pool5_0_split -> pool5_pool5_0_split_0
I0511 18:25:26.117390 31642 net.cpp:412] pool5_pool5_0_split -> pool5_pool5_0_split_1
I0511 18:25:26.117400 31642 net.cpp:412] pool5_pool5_0_split -> pool5_pool5_0_split_2
I0511 18:25:26.117417 31642 net.cpp:412] pool5_pool5_0_split -> pool5_pool5_0_split_3
I0511 18:25:26.117453 31642 net.cpp:151] Setting up pool5_pool5_0_split
I0511 18:25:26.117496 31642 net.cpp:158] Top shape: 1 512 57 57 (1663488)
I0511 18:25:26.117516 31642 net.cpp:158] Top shape: 1 512 57 57 (1663488)
I0511 18:25:26.117538 31642 net.cpp:158] Top shape: 1 512 57 57 (1663488)
I0511 18:25:26.117571 31642 net.cpp:158] Top shape: 1 512 57 57 (1663488)
I0511 18:25:26.117583 31642 net.cpp:166] Memory required for data: 551430476
I0511 18:25:26.117616 31642 layer_factory.hpp:77] Creating layer fc6_1
I0511 18:25:26.117660 31642 net.cpp:107] Creating Layer fc6_1
I0511 18:25:26.117673 31642 net.cpp:455] fc6_1 <- pool5_pool5_0_split_0
I0511 18:25:26.117694 31642 net.cpp:412] fc6_1 -> fc6_1
I0511 18:25:26.126111 31642 net.cpp:151] Setting up fc6_1
I0511 18:25:26.126176 31642 net.cpp:158] Top shape: 1 1024 57 57 (3326976)
I0511 18:25:26.126189 31642 net.cpp:166] Memory required for data: 564738380
I0511 18:25:26.126209 31642 layer_factory.hpp:77] Creating layer relu6_1
I0511 18:25:26.126224 31642 net.cpp:107] Creating Layer relu6_1
I0511 18:25:26.126232 31642 net.cpp:455] relu6_1 <- fc6_1
I0511 18:25:26.126261 31642 net.cpp:398] relu6_1 -> fc6_1 (in-place)
I0511 18:25:26.126292 31642 net.cpp:151] Setting up relu6_1
I0511 18:25:26.126300 31642 net.cpp:158] Top shape: 1 1024 57 57 (3326976)
I0511 18:25:26.126307 31642 net.cpp:166] Memory required for data: 578046284
I0511 18:25:26.126343 31642 layer_factory.hpp:77] Creating layer drop6_1
I0511 18:25:26.126389 31642 net.cpp:107] Creating Layer drop6_1
I0511 18:25:26.126399 31642 net.cpp:455] drop6_1 <- fc6_1
I0511 18:25:26.126413 31642 net.cpp:398] drop6_1 -> fc6_1 (in-place)
I0511 18:25:26.126456 31642 net.cpp:151] Setting up drop6_1
I0511 18:25:26.126471 31642 net.cpp:158] Top shape: 1 1024 57 57 (3326976)
I0511 18:25:26.126482 31642 net.cpp:166] Memory required for data: 591354188
I0511 18:25:26.126502 31642 layer_factory.hpp:77] Creating layer fc7_1
I0511 18:25:26.126519 31642 net.cpp:107] Creating Layer fc7_1
I0511 18:25:26.126554 31642 net.cpp:455] fc7_1 <- fc6_1
I0511 18:25:26.126574 31642 net.cpp:412] fc7_1 -> fc7_1
I0511 18:25:26.128263 31642 net.cpp:151] Setting up fc7_1
I0511 18:25:26.128304 31642 net.cpp:158] Top shape: 1 1024 57 57 (3326976)
I0511 18:25:26.128307 31642 net.cpp:166] Memory required for data: 604662092
I0511 18:25:26.128329 31642 layer_factory.hpp:77] Creating layer relu7_1
I0511 18:25:26.128338 31642 net.cpp:107] Creating Layer relu7_1
I0511 18:25:26.128358 31642 net.cpp:455] relu7_1 <- fc7_1
I0511 18:25:26.128366 31642 net.cpp:398] relu7_1 -> fc7_1 (in-place)
I0511 18:25:26.128377 31642 net.cpp:151] Setting up relu7_1
I0511 18:25:26.128404 31642 net.cpp:158] Top shape: 1 1024 57 57 (3326976)
I0511 18:25:26.128427 31642 net.cpp:166] Memory required for data: 617969996
I0511 18:25:26.128438 31642 layer_factory.hpp:77] Creating layer drop7_1
I0511 18:25:26.128451 31642 net.cpp:107] Creating Layer drop7_1
I0511 18:25:26.128458 31642 net.cpp:455] drop7_1 <- fc7_1
I0511 18:25:26.128476 31642 net.cpp:398] drop7_1 -> fc7_1 (in-place)
I0511 18:25:26.128485 31642 net.cpp:151] Setting up drop7_1
I0511 18:25:26.128494 31642 net.cpp:158] Top shape: 1 1024 57 57 (3326976)
I0511 18:25:26.128516 31642 net.cpp:166] Memory required for data: 631277900
I0511 18:25:26.128522 31642 layer_factory.hpp:77] Creating layer fc8_exper_1
I0511 18:25:26.128536 31642 net.cpp:107] Creating Layer fc8_exper_1
I0511 18:25:26.128607 31642 net.cpp:455] fc8_exper_1 <- fc7_1
I0511 18:25:26.128641 31642 net.cpp:412] fc8_exper_1 -> fc8_exper_1
I0511 18:25:26.128767 31642 net.cpp:151] Setting up fc8_exper_1
I0511 18:25:26.128792 31642 net.cpp:158] Top shape: 1 2 57 57 (6498)
I0511 18:25:26.128803 31642 net.cpp:166] Memory required for data: 631303892
I0511 18:25:26.128818 31642 layer_factory.hpp:77] Creating layer fc6_2
I0511 18:25:26.128859 31642 net.cpp:107] Creating Layer fc6_2
I0511 18:25:26.128895 31642 net.cpp:455] fc6_2 <- pool5_pool5_0_split_1
I0511 18:25:26.128929 31642 net.cpp:412] fc6_2 -> fc6_2
I0511 18:25:26.135941 31642 net.cpp:151] Setting up fc6_2
I0511 18:25:26.136001 31642 net.cpp:158] Top shape: 1 1024 57 57 (3326976)
I0511 18:25:26.136010 31642 net.cpp:166] Memory required for data: 644611796
I0511 18:25:26.136034 31642 layer_factory.hpp:77] Creating layer relu6_2
I0511 18:25:26.136065 31642 net.cpp:107] Creating Layer relu6_2
I0511 18:25:26.136075 31642 net.cpp:455] relu6_2 <- fc6_2
I0511 18:25:26.136104 31642 net.cpp:398] relu6_2 -> fc6_2 (in-place)
I0511 18:25:26.136123 31642 net.cpp:151] Setting up relu6_2
I0511 18:25:26.136142 31642 net.cpp:158] Top shape: 1 1024 57 57 (3326976)
I0511 18:25:26.136153 31642 net.cpp:166] Memory required for data: 657919700
I0511 18:25:26.136164 31642 layer_factory.hpp:77] Creating layer drop6_2
I0511 18:25:26.136179 31642 net.cpp:107] Creating Layer drop6_2
I0511 18:25:26.136191 31642 net.cpp:455] drop6_2 <- fc6_2
I0511 18:25:26.136209 31642 net.cpp:398] drop6_2 -> fc6_2 (in-place)
I0511 18:25:26.136250 31642 net.cpp:151] Setting up drop6_2
I0511 18:25:26.136287 31642 net.cpp:158] Top shape: 1 1024 57 57 (3326976)
I0511 18:25:26.136306 31642 net.cpp:166] Memory required for data: 671227604
I0511 18:25:26.136317 31642 layer_factory.hpp:77] Creating layer fc7_2
I0511 18:25:26.136359 31642 net.cpp:107] Creating Layer fc7_2
I0511 18:25:26.136376 31642 net.cpp:455] fc7_2 <- fc6_2
I0511 18:25:26.136402 31642 net.cpp:412] fc7_2 -> fc7_2
I0511 18:25:26.138005 31642 net.cpp:151] Setting up fc7_2
I0511 18:25:26.138052 31642 net.cpp:158] Top shape: 1 1024 57 57 (3326976)
I0511 18:25:26.138067 31642 net.cpp:166] Memory required for data: 684535508
I0511 18:25:26.138082 31642 layer_factory.hpp:77] Creating layer relu7_2
I0511 18:25:26.138094 31642 net.cpp:107] Creating Layer relu7_2
I0511 18:25:26.138123 31642 net.cpp:455] relu7_2 <- fc7_2
I0511 18:25:26.138150 31642 net.cpp:398] relu7_2 -> fc7_2 (in-place)
I0511 18:25:26.138162 31642 net.cpp:151] Setting up relu7_2
I0511 18:25:26.138195 31642 net.cpp:158] Top shape: 1 1024 57 57 (3326976)
I0511 18:25:26.138202 31642 net.cpp:166] Memory required for data: 697843412
I0511 18:25:26.138211 31642 layer_factory.hpp:77] Creating layer drop7_2
I0511 18:25:26.138222 31642 net.cpp:107] Creating Layer drop7_2
I0511 18:25:26.138229 31642 net.cpp:455] drop7_2 <- fc7_2
I0511 18:25:26.138238 31642 net.cpp:398] drop7_2 -> fc7_2 (in-place)
I0511 18:25:26.138250 31642 net.cpp:151] Setting up drop7_2
I0511 18:25:26.138259 31642 net.cpp:158] Top shape: 1 1024 57 57 (3326976)
I0511 18:25:26.138265 31642 net.cpp:166] Memory required for data: 711151316
I0511 18:25:26.138273 31642 layer_factory.hpp:77] Creating layer fc8_exper_2
I0511 18:25:26.138288 31642 net.cpp:107] Creating Layer fc8_exper_2
I0511 18:25:26.138295 31642 net.cpp:455] fc8_exper_2 <- fc7_2
I0511 18:25:26.138312 31642 net.cpp:412] fc8_exper_2 -> fc8_exper_2
I0511 18:25:26.138377 31642 net.cpp:151] Setting up fc8_exper_2
I0511 18:25:26.138412 31642 net.cpp:158] Top shape: 1 2 57 57 (6498)
I0511 18:25:26.138425 31642 net.cpp:166] Memory required for data: 711177308
I0511 18:25:26.138465 31642 layer_factory.hpp:77] Creating layer fc6_3
I0511 18:25:26.138486 31642 net.cpp:107] Creating Layer fc6_3
I0511 18:25:26.138521 31642 net.cpp:455] fc6_3 <- pool5_pool5_0_split_2
I0511 18:25:26.138533 31642 net.cpp:412] fc6_3 -> fc6_3
I0511 18:25:26.145383 31642 net.cpp:151] Setting up fc6_3
I0511 18:25:26.145439 31642 net.cpp:158] Top shape: 1 1024 57 57 (3326976)
I0511 18:25:26.145449 31642 net.cpp:166] Memory required for data: 724485212
I0511 18:25:26.145507 31642 layer_factory.hpp:77] Creating layer relu6_3
I0511 18:25:26.145541 31642 net.cpp:107] Creating Layer relu6_3
I0511 18:25:26.145550 31642 net.cpp:455] relu6_3 <- fc6_3
I0511 18:25:26.145579 31642 net.cpp:398] relu6_3 -> fc6_3 (in-place)
I0511 18:25:26.145593 31642 net.cpp:151] Setting up relu6_3
I0511 18:25:26.145602 31642 net.cpp:158] Top shape: 1 1024 57 57 (3326976)
I0511 18:25:26.145608 31642 net.cpp:166] Memory required for data: 737793116
I0511 18:25:26.145615 31642 layer_factory.hpp:77] Creating layer drop6_3
I0511 18:25:26.145625 31642 net.cpp:107] Creating Layer drop6_3
I0511 18:25:26.145648 31642 net.cpp:455] drop6_3 <- fc6_3
I0511 18:25:26.145673 31642 net.cpp:398] drop6_3 -> fc6_3 (in-place)
I0511 18:25:26.145689 31642 net.cpp:151] Setting up drop6_3
I0511 18:25:26.145730 31642 net.cpp:158] Top shape: 1 1024 57 57 (3326976)
I0511 18:25:26.145774 31642 net.cpp:166] Memory required for data: 751101020
I0511 18:25:26.145810 31642 layer_factory.hpp:77] Creating layer fc7_3
I0511 18:25:26.145825 31642 net.cpp:107] Creating Layer fc7_3
I0511 18:25:26.145855 31642 net.cpp:455] fc7_3 <- fc6_3
I0511 18:25:26.145886 31642 net.cpp:412] fc7_3 -> fc7_3
I0511 18:25:26.147775 31642 net.cpp:151] Setting up fc7_3
I0511 18:25:26.147833 31642 net.cpp:158] Top shape: 1 1024 57 57 (3326976)
I0511 18:25:26.147841 31642 net.cpp:166] Memory required for data: 764408924
I0511 18:25:26.147881 31642 layer_factory.hpp:77] Creating layer relu7_3
I0511 18:25:26.147923 31642 net.cpp:107] Creating Layer relu7_3
I0511 18:25:26.147933 31642 net.cpp:455] relu7_3 <- fc7_3
I0511 18:25:26.147974 31642 net.cpp:398] relu7_3 -> fc7_3 (in-place)
I0511 18:25:26.148001 31642 net.cpp:151] Setting up relu7_3
I0511 18:25:26.148011 31642 net.cpp:158] Top shape: 1 1024 57 57 (3326976)
I0511 18:25:26.148046 31642 net.cpp:166] Memory required for data: 777716828
I0511 18:25:26.148069 31642 layer_factory.hpp:77] Creating layer drop7_3
I0511 18:25:26.148079 31642 net.cpp:107] Creating Layer drop7_3
I0511 18:25:26.148104 31642 net.cpp:455] drop7_3 <- fc7_3
I0511 18:25:26.148113 31642 net.cpp:398] drop7_3 -> fc7_3 (in-place)
I0511 18:25:26.148126 31642 net.cpp:151] Setting up drop7_3
I0511 18:25:26.148150 31642 net.cpp:158] Top shape: 1 1024 57 57 (3326976)
I0511 18:25:26.148157 31642 net.cpp:166] Memory required for data: 791024732
I0511 18:25:26.148164 31642 layer_factory.hpp:77] Creating layer fc8_exper_3
I0511 18:25:26.148210 31642 net.cpp:107] Creating Layer fc8_exper_3
I0511 18:25:26.148248 31642 net.cpp:455] fc8_exper_3 <- fc7_3
I0511 18:25:26.148288 31642 net.cpp:412] fc8_exper_3 -> fc8_exper_3
I0511 18:25:26.148407 31642 net.cpp:151] Setting up fc8_exper_3
I0511 18:25:26.148458 31642 net.cpp:158] Top shape: 1 2 57 57 (6498)
I0511 18:25:26.148488 31642 net.cpp:166] Memory required for data: 791050724
I0511 18:25:26.148535 31642 layer_factory.hpp:77] Creating layer fc6_4
I0511 18:25:26.148612 31642 net.cpp:107] Creating Layer fc6_4
I0511 18:25:26.148669 31642 net.cpp:455] fc6_4 <- pool5_pool5_0_split_3
I0511 18:25:26.148727 31642 net.cpp:412] fc6_4 -> fc6_4
I0511 18:25:26.155216 31642 net.cpp:151] Setting up fc6_4
I0511 18:25:26.155278 31642 net.cpp:158] Top shape: 1 1024 57 57 (3326976)
I0511 18:25:26.155287 31642 net.cpp:166] Memory required for data: 804358628
I0511 18:25:26.155299 31642 layer_factory.hpp:77] Creating layer relu6_4
I0511 18:25:26.155313 31642 net.cpp:107] Creating Layer relu6_4
I0511 18:25:26.155340 31642 net.cpp:455] relu6_4 <- fc6_4
I0511 18:25:26.155351 31642 net.cpp:398] relu6_4 -> fc6_4 (in-place)
I0511 18:25:26.155381 31642 net.cpp:151] Setting up relu6_4
I0511 18:25:26.155407 31642 net.cpp:158] Top shape: 1 1024 57 57 (3326976)
I0511 18:25:26.155414 31642 net.cpp:166] Memory required for data: 817666532
I0511 18:25:26.155421 31642 layer_factory.hpp:77] Creating layer drop6_4
I0511 18:25:26.155432 31642 net.cpp:107] Creating Layer drop6_4
I0511 18:25:26.155441 31642 net.cpp:455] drop6_4 <- fc6_4
I0511 18:25:26.155449 31642 net.cpp:398] drop6_4 -> fc6_4 (in-place)
I0511 18:25:26.155489 31642 net.cpp:151] Setting up drop6_4
I0511 18:25:26.155514 31642 net.cpp:158] Top shape: 1 1024 57 57 (3326976)
I0511 18:25:26.155519 31642 net.cpp:166] Memory required for data: 830974436
I0511 18:25:26.155522 31642 layer_factory.hpp:77] Creating layer fc7_4
I0511 18:25:26.155530 31642 net.cpp:107] Creating Layer fc7_4
I0511 18:25:26.155534 31642 net.cpp:455] fc7_4 <- fc6_4
I0511 18:25:26.155541 31642 net.cpp:412] fc7_4 -> fc7_4
I0511 18:25:26.157047 31642 net.cpp:151] Setting up fc7_4
I0511 18:25:26.157074 31642 net.cpp:158] Top shape: 1 1024 57 57 (3326976)
I0511 18:25:26.157078 31642 net.cpp:166] Memory required for data: 844282340
I0511 18:25:26.157084 31642 layer_factory.hpp:77] Creating layer relu7_4
I0511 18:25:26.157106 31642 net.cpp:107] Creating Layer relu7_4
I0511 18:25:26.157110 31642 net.cpp:455] relu7_4 <- fc7_4
I0511 18:25:26.157130 31642 net.cpp:398] relu7_4 -> fc7_4 (in-place)
I0511 18:25:26.157136 31642 net.cpp:151] Setting up relu7_4
I0511 18:25:26.157156 31642 net.cpp:158] Top shape: 1 1024 57 57 (3326976)
I0511 18:25:26.157164 31642 net.cpp:166] Memory required for data: 857590244
I0511 18:25:26.157167 31642 layer_factory.hpp:77] Creating layer drop7_4
I0511 18:25:26.157174 31642 net.cpp:107] Creating Layer drop7_4
I0511 18:25:26.157186 31642 net.cpp:455] drop7_4 <- fc7_4
I0511 18:25:26.157194 31642 net.cpp:398] drop7_4 -> fc7_4 (in-place)
I0511 18:25:26.157204 31642 net.cpp:151] Setting up drop7_4
I0511 18:25:26.157213 31642 net.cpp:158] Top shape: 1 1024 57 57 (3326976)
I0511 18:25:26.157236 31642 net.cpp:166] Memory required for data: 870898148
I0511 18:25:26.157244 31642 layer_factory.hpp:77] Creating layer fc8_exper_4
I0511 18:25:26.157272 31642 net.cpp:107] Creating Layer fc8_exper_4
I0511 18:25:26.157310 31642 net.cpp:455] fc8_exper_4 <- fc7_4
I0511 18:25:26.157323 31642 net.cpp:412] fc8_exper_4 -> fc8_exper_4
I0511 18:25:26.157438 31642 net.cpp:151] Setting up fc8_exper_4
I0511 18:25:26.157482 31642 net.cpp:158] Top shape: 1 2 57 57 (6498)
I0511 18:25:26.157491 31642 net.cpp:166] Memory required for data: 870924140
I0511 18:25:26.157511 31642 layer_factory.hpp:77] Creating layer fc8_exper
I0511 18:25:26.157558 31642 net.cpp:107] Creating Layer fc8_exper
I0511 18:25:26.157594 31642 net.cpp:455] fc8_exper <- fc8_exper_1
I0511 18:25:26.157654 31642 net.cpp:455] fc8_exper <- fc8_exper_2
I0511 18:25:26.157707 31642 net.cpp:455] fc8_exper <- fc8_exper_3
I0511 18:25:26.157763 31642 net.cpp:455] fc8_exper <- fc8_exper_4
I0511 18:25:26.157846 31642 net.cpp:412] fc8_exper -> fc8_exper
I0511 18:25:26.157886 31642 net.cpp:151] Setting up fc8_exper
I0511 18:25:26.157922 31642 net.cpp:158] Top shape: 1 2 57 57 (6498)
I0511 18:25:26.157959 31642 net.cpp:166] Memory required for data: 870950132
I0511 18:25:26.157972 31642 layer_factory.hpp:77] Creating layer upsample
I0511 18:25:26.158025 31642 net.cpp:107] Creating Layer upsample
I0511 18:25:26.158041 31642 net.cpp:455] upsample <- fc8_exper
I0511 18:25:26.158077 31642 net.cpp:412] upsample -> upscore
I0511 18:25:26.158164 31642 net.cpp:151] Setting up upsample
I0511 18:25:26.158213 31642 net.cpp:158] Top shape: 1 2 457 457 (417698)
I0511 18:25:26.158247 31642 net.cpp:166] Memory required for data: 872620924
I0511 18:25:26.158290 31642 layer_factory.hpp:77] Creating layer score
I0511 18:25:26.158306 31642 net.cpp:107] Creating Layer score
I0511 18:25:26.158336 31642 net.cpp:455] score <- upscore
I0511 18:25:26.158365 31642 net.cpp:455] score <- data_patch_transformer1_0_split_1
I0511 18:25:26.158406 31642 net.cpp:412] score -> score
I0511 18:25:26.160639 31642 crop_layer.cpp:76] cropinfo:4,4
I0511 18:25:26.160686 31642 net.cpp:151] Setting up score
I0511 18:25:26.160699 31642 net.cpp:158] Top shape: 1 2 449 449 (403202)
I0511 18:25:26.160706 31642 net.cpp:166] Memory required for data: 874233732
I0511 18:25:26.160713 31642 layer_factory.hpp:77] Creating layer score_score_0_split
I0511 18:25:26.160725 31642 net.cpp:107] Creating Layer score_score_0_split
I0511 18:25:26.160733 31642 net.cpp:455] score_score_0_split <- score
I0511 18:25:26.160742 31642 net.cpp:412] score_score_0_split -> score_score_0_split_0
I0511 18:25:26.160784 31642 net.cpp:412] score_score_0_split -> score_score_0_split_1
I0511 18:25:26.160795 31642 net.cpp:412] score_score_0_split -> score_score_0_split_2
I0511 18:25:26.160809 31642 net.cpp:151] Setting up score_score_0_split
I0511 18:25:26.160846 31642 net.cpp:158] Top shape: 1 2 449 449 (403202)
I0511 18:25:26.160854 31642 net.cpp:158] Top shape: 1 2 449 449 (403202)
I0511 18:25:26.160861 31642 net.cpp:158] Top shape: 1 2 449 449 (403202)
I0511 18:25:26.160868 31642 net.cpp:166] Memory required for data: 879072156
I0511 18:25:26.160876 31642 layer_factory.hpp:77] Creating layer splitting
I0511 18:25:26.160883 31642 net.cpp:107] Creating Layer splitting
I0511 18:25:26.160890 31642 net.cpp:455] splitting <- score_score_0_split_0
I0511 18:25:26.160903 31642 net.cpp:412] splitting -> unary
I0511 18:25:26.160913 31642 net.cpp:412] splitting -> Q0
I0511 18:25:26.160923 31642 net.cpp:151] Setting up splitting
I0511 18:25:26.160931 31642 net.cpp:158] Top shape: 1 2 449 449 (403202)
I0511 18:25:26.160939 31642 net.cpp:158] Top shape: 1 2 449 449 (403202)
I0511 18:25:26.160945 31642 net.cpp:166] Memory required for data: 882297772
I0511 18:25:26.160951 31642 layer_factory.hpp:77] Creating layer inference
I0511 18:25:26.160964 31642 net.cpp:107] Creating Layer inference
I0511 18:25:26.160971 31642 net.cpp:455] inference <- unary
I0511 18:25:26.160979 31642 net.cpp:455] inference <- Q0
I0511 18:25:26.160986 31642 net.cpp:455] inference <- data_patch_transformer1_0_split_2
I0511 18:25:26.160995 31642 net.cpp:412] inference -> pred
I0511 18:25:26.161028 31642 multi_stage_meanfield.cpp:48] This implementation has not been tested batch size > 1.
I0511 18:25:26.206028 31642 multi_stage_meanfield.cpp:151] MultiStageMeanfieldLayer initialized.
I0511 18:25:26.237507 31642 net.cpp:151] Setting up inference
I0511 18:25:26.237560 31642 net.cpp:158] Top shape: 1 2 449 449 (403202)
I0511 18:25:26.237568 31642 net.cpp:166] Memory required for data: 883910580
I0511 18:25:26.237614 31642 layer_factory.hpp:77] Creating layer pred_inference_0_split
I0511 18:25:26.237643 31642 net.cpp:107] Creating Layer pred_inference_0_split
I0511 18:25:26.237668 31642 net.cpp:455] pred_inference_0_split <- pred
I0511 18:25:26.237725 31642 net.cpp:412] pred_inference_0_split -> pred_inference_0_split_0
I0511 18:25:26.237737 31642 net.cpp:412] pred_inference_0_split -> pred_inference_0_split_1
I0511 18:25:26.237748 31642 net.cpp:151] Setting up pred_inference_0_split
I0511 18:25:26.237807 31642 net.cpp:158] Top shape: 1 2 449 449 (403202)
I0511 18:25:26.237830 31642 net.cpp:158] Top shape: 1 2 449 449 (403202)
I0511 18:25:26.237836 31642 net.cpp:166] Memory required for data: 887136196
I0511 18:25:26.237843 31642 layer_factory.hpp:77] Creating layer loss
I0511 18:25:26.237920 31642 net.cpp:107] Creating Layer loss
I0511 18:25:26.237957 31642 net.cpp:455] loss <- pred_inference_0_split_0
I0511 18:25:26.238011 31642 net.cpp:455] loss <- label_patch_transformer1_1_split_0
I0511 18:25:26.238042 31642 net.cpp:412] loss -> (automatic)
I0511 18:25:26.238087 31642 layer_factory.hpp:77] Creating layer loss
I0511 18:25:26.239037 31642 net.cpp:151] Setting up loss
I0511 18:25:26.239097 31642 net.cpp:158] Top shape: (1)
I0511 18:25:26.239105 31642 net.cpp:161]     with loss weight 0.5
I0511 18:25:26.239179 31642 net.cpp:166] Memory required for data: 887136200
I0511 18:25:26.239203 31642 layer_factory.hpp:77] Creating layer accuracy
I0511 18:25:26.239217 31642 net.cpp:107] Creating Layer accuracy
I0511 18:25:26.239223 31642 net.cpp:455] accuracy <- pred_inference_0_split_1
I0511 18:25:26.239233 31642 net.cpp:455] accuracy <- label_patch_transformer1_1_split_1
I0511 18:25:26.239284 31642 net.cpp:412] accuracy -> accuracy
I0511 18:25:26.239328 31642 net.cpp:151] Setting up accuracy
I0511 18:25:26.239354 31642 net.cpp:158] Top shape: 1 1 1 3 (3)
I0511 18:25:26.239399 31642 net.cpp:166] Memory required for data: 887136212
I0511 18:25:26.239410 31642 layer_factory.hpp:77] Creating layer loss_deep
I0511 18:25:26.239524 31642 net.cpp:107] Creating Layer loss_deep
I0511 18:25:26.239539 31642 net.cpp:455] loss_deep <- score_score_0_split_1
I0511 18:25:26.239564 31642 net.cpp:455] loss_deep <- label_patch_transformer1_1_split_2
I0511 18:25:26.239581 31642 net.cpp:412] loss_deep -> (automatic)
I0511 18:25:26.239650 31642 layer_factory.hpp:77] Creating layer loss_deep
I0511 18:25:26.240137 31642 net.cpp:151] Setting up loss_deep
I0511 18:25:26.240171 31642 net.cpp:158] Top shape: (1)
I0511 18:25:26.240180 31642 net.cpp:161]     with loss weight 0.5
I0511 18:25:26.240229 31642 net.cpp:166] Memory required for data: 887136216
I0511 18:25:26.240255 31642 layer_factory.hpp:77] Creating layer accuracy_deep
I0511 18:25:26.240267 31642 net.cpp:107] Creating Layer accuracy_deep
I0511 18:25:26.240288 31642 net.cpp:455] accuracy_deep <- score_score_0_split_2
I0511 18:25:26.240298 31642 net.cpp:455] accuracy_deep <- label_patch_transformer1_1_split_3
I0511 18:25:26.240306 31642 net.cpp:412] accuracy_deep -> accuracy_2
I0511 18:25:26.240352 31642 net.cpp:151] Setting up accuracy_deep
I0511 18:25:26.240375 31642 net.cpp:158] Top shape: 1 1 1 3 (3)
I0511 18:25:26.240396 31642 net.cpp:166] Memory required for data: 887136228
I0511 18:25:26.240459 31642 layer_factory.hpp:77] Creating layer silence
I0511 18:25:26.240471 31642 net.cpp:107] Creating Layer silence
I0511 18:25:26.240479 31642 net.cpp:455] silence <- data_dim
I0511 18:25:26.240487 31642 net.cpp:151] Setting up silence
I0511 18:25:26.240494 31642 net.cpp:166] Memory required for data: 887136228
…
