I0512 20:47:13.846529  5089 layer_factory.hpp:77] Creating layer input_data
I0512 20:47:13.846787  5089 net.cpp:107] Creating Layer input_data
I0512 20:47:13.847002  5089 net.cpp:412] input_data -> input_data
I0512 20:47:13.858220  5095 db_lmdb.cpp:38] Opened lmdb /dvol/road-discovery/data/lmdb/gneti_data_test
I0512 20:47:13.864728  5089 data_layer.cpp:41] output data size: 8,3,512,512
I0512 20:47:13.865298  5089 net.cpp:151] Setting up input_data
I0512 20:47:13.865589  5089 net.cpp:158] Top shape: 8 3 512 512 (6291456)
I0512 20:47:13.865875  5089 net.cpp:166] Memory required for data: 25165824
I0512 20:47:13.866060  5089 layer_factory.hpp:77] Creating layer input_label
I0512 20:47:13.866525  5089 net.cpp:107] Creating Layer input_label
I0512 20:47:13.867064  5089 net.cpp:412] input_label -> input_label
I0512 20:47:13.878306  5097 db_lmdb.cpp:38] Opened lmdb /dvol/road-discovery/data/lmdb/gneti_label_test
I0512 20:47:13.884634  5089 data_layer.cpp:41] output data size: 8,1,512,512
I0512 20:47:13.886497  5089 net.cpp:151] Setting up input_label
I0512 20:47:13.886827  5089 net.cpp:158] Top shape: 8 1 512 512 (2097152)
I0512 20:47:13.887074  5089 net.cpp:166] Memory required for data: 33554432
I0512 20:47:13.887630  5089 layer_factory.hpp:77] Creating layer patch_transformer1
I0512 20:47:13.888130  5089 net.cpp:107] Creating Layer patch_transformer1
I0512 20:47:13.888507  5089 net.cpp:455] patch_transformer1 <- input_data
I0512 20:47:13.888950  5089 net.cpp:455] patch_transformer1 <- input_label
I0512 20:47:13.889237  5089 net.cpp:412] patch_transformer1 -> patch_transformer1
I0512 20:47:13.889524  5089 net.cpp:412] patch_transformer1 -> label
I0512 20:47:13.889780  5089 patch_transformer_layer.cpp:11] transformer input: 8, 3, 512, 512
I0512 20:47:13.890390  5089 patch_transformer_layer.cpp:11] transformer input: 8, 1, 512, 512
I0512 20:47:13.891118  5089 net.cpp:151] Setting up patch_transformer1
I0512 20:47:13.891737  5089 net.cpp:158] Top shape: 8 3 224 224 (1204224)
I0512 20:47:13.892330  5089 net.cpp:158] Top shape: 8 1 16 16 (2048)
I0512 20:47:13.893087  5089 net.cpp:166] Memory required for data: 38379520
I0512 20:47:13.893782  5089 layer_factory.hpp:77] Creating layer label_patch_transformer1_1_split
I0512 20:47:13.894140  5089 net.cpp:107] Creating Layer label_patch_transformer1_1_split
I0512 20:47:13.894645  5089 net.cpp:455] label_patch_transformer1_1_split <- label
I0512 20:47:13.895201  5089 net.cpp:412] label_patch_transformer1_1_split -> label_patch_transformer1_1_split_0
I0512 20:47:13.895586  5089 net.cpp:412] label_patch_transformer1_1_split -> label_patch_transformer1_1_split_1
I0512 20:47:13.895860  5089 net.cpp:151] Setting up label_patch_transformer1_1_split
I0512 20:47:13.896265  5089 net.cpp:158] Top shape: 8 1 16 16 (2048)
I0512 20:47:13.896745  5089 net.cpp:158] Top shape: 8 1 16 16 (2048)
I0512 20:47:13.897125  5089 net.cpp:166] Memory required for data: 38395904
I0512 20:47:13.897825  5089 layer_factory.hpp:77] Creating layer conv1/7x7_s2
I0512 20:47:13.898398  5089 net.cpp:107] Creating Layer conv1/7x7_s2
I0512 20:47:13.898941  5089 net.cpp:455] conv1/7x7_s2 <- patch_transformer1
I0512 20:47:13.899416  5089 net.cpp:412] conv1/7x7_s2 -> conv1/7x7_s2
I0512 20:47:13.899930  5089 net.cpp:151] Setting up conv1/7x7_s2
I0512 20:47:13.900835  5089 net.cpp:158] Top shape: 8 64 112 112 (6422528)
I0512 20:47:13.901453  5089 net.cpp:166] Memory required for data: 64086016
I0512 20:47:13.901758  5089 layer_factory.hpp:77] Creating layer conv1/relu_7x7
I0512 20:47:13.902181  5089 net.cpp:107] Creating Layer conv1/relu_7x7
I0512 20:47:13.902485  5089 net.cpp:455] conv1/relu_7x7 <- conv1/7x7_s2
I0512 20:47:13.902863  5089 net.cpp:398] conv1/relu_7x7 -> conv1/7x7_s2 (in-place)
I0512 20:47:13.903476  5089 net.cpp:151] Setting up conv1/relu_7x7
I0512 20:47:13.904054  5089 net.cpp:158] Top shape: 8 64 112 112 (6422528)
I0512 20:47:13.904693  5089 net.cpp:166] Memory required for data: 89776128
I0512 20:47:13.905409  5089 layer_factory.hpp:77] Creating layer pool1/3x3_s2
I0512 20:47:13.906070  5089 net.cpp:107] Creating Layer pool1/3x3_s2
I0512 20:47:13.906637  5089 net.cpp:455] pool1/3x3_s2 <- conv1/7x7_s2
I0512 20:47:13.907410  5089 net.cpp:412] pool1/3x3_s2 -> pool1/3x3_s2
I0512 20:47:13.907721  5089 net.cpp:151] Setting up pool1/3x3_s2
I0512 20:47:13.908071  5089 net.cpp:158] Top shape: 8 64 56 56 (1605632)
I0512 20:47:13.908614  5089 net.cpp:166] Memory required for data: 96198656
I0512 20:47:13.909195  5089 layer_factory.hpp:77] Creating layer pool1/norm1
I0512 20:47:13.909482  5089 net.cpp:107] Creating Layer pool1/norm1
I0512 20:47:13.909804  5089 net.cpp:455] pool1/norm1 <- pool1/3x3_s2
I0512 20:47:13.910167  5089 net.cpp:412] pool1/norm1 -> pool1/norm1
I0512 20:47:13.911087  5089 net.cpp:151] Setting up pool1/norm1
I0512 20:47:13.911583  5089 net.cpp:158] Top shape: 8 64 56 56 (1605632)
I0512 20:47:13.911932  5089 net.cpp:166] Memory required for data: 102621184
I0512 20:47:13.912380  5089 layer_factory.hpp:77] Creating layer conv2/3x3_reduce
I0512 20:47:13.913295  5089 net.cpp:107] Creating Layer conv2/3x3_reduce
I0512 20:47:13.914063  5089 net.cpp:455] conv2/3x3_reduce <- pool1/norm1
I0512 20:47:13.914789  5089 net.cpp:412] conv2/3x3_reduce -> conv2/3x3_reduce
I0512 20:47:13.915622  5089 net.cpp:151] Setting up conv2/3x3_reduce
I0512 20:47:13.916133  5089 net.cpp:158] Top shape: 8 64 56 56 (1605632)
I0512 20:47:13.916424  5089 net.cpp:166] Memory required for data: 109043712
I0512 20:47:13.917208  5089 layer_factory.hpp:77] Creating layer conv2/relu_3x3_reduce
I0512 20:47:13.917750  5089 net.cpp:107] Creating Layer conv2/relu_3x3_reduce
I0512 20:47:13.918090  5089 net.cpp:455] conv2/relu_3x3_reduce <- conv2/3x3_reduce
I0512 20:47:13.918622  5089 net.cpp:398] conv2/relu_3x3_reduce -> conv2/3x3_reduce (in-place)
I0512 20:47:13.919179  5089 net.cpp:151] Setting up conv2/relu_3x3_reduce
I0512 20:47:13.919632  5089 net.cpp:158] Top shape: 8 64 56 56 (1605632)
I0512 20:47:13.920116  5089 net.cpp:166] Memory required for data: 115466240
I0512 20:47:13.920836  5089 layer_factory.hpp:77] Creating layer conv2/3x3
I0512 20:47:13.921758  5089 net.cpp:107] Creating Layer conv2/3x3
I0512 20:47:13.922333  5089 net.cpp:455] conv2/3x3 <- conv2/3x3_reduce
I0512 20:47:13.922921  5089 net.cpp:412] conv2/3x3 -> conv2/3x3
I0512 20:47:13.924461  5089 net.cpp:151] Setting up conv2/3x3
I0512 20:47:13.924969  5089 net.cpp:158] Top shape: 8 192 56 56 (4816896)
I0512 20:47:13.925366  5089 net.cpp:166] Memory required for data: 134733824
I0512 20:47:13.926215  5089 layer_factory.hpp:77] Creating layer conv2/relu_3x3
I0512 20:47:13.926586  5089 net.cpp:107] Creating Layer conv2/relu_3x3
I0512 20:47:13.927273  5089 net.cpp:455] conv2/relu_3x3 <- conv2/3x3
I0512 20:47:13.928259  5089 net.cpp:398] conv2/relu_3x3 -> conv2/3x3 (in-place)
I0512 20:47:13.928874  5089 net.cpp:151] Setting up conv2/relu_3x3
I0512 20:47:13.929378  5089 net.cpp:158] Top shape: 8 192 56 56 (4816896)
I0512 20:47:13.930058  5089 net.cpp:166] Memory required for data: 154001408
I0512 20:47:13.930493  5089 layer_factory.hpp:77] Creating layer conv2/norm2
I0512 20:47:13.930755  5089 net.cpp:107] Creating Layer conv2/norm2
I0512 20:47:13.931430  5089 net.cpp:455] conv2/norm2 <- conv2/3x3
I0512 20:47:13.932158  5089 net.cpp:412] conv2/norm2 -> conv2/norm2
I0512 20:47:13.932454  5089 net.cpp:151] Setting up conv2/norm2
I0512 20:47:13.932850  5089 net.cpp:158] Top shape: 8 192 56 56 (4816896)
I0512 20:47:13.933142  5089 net.cpp:166] Memory required for data: 173268992
I0512 20:47:13.933856  5089 layer_factory.hpp:77] Creating layer pool2/3x3_s2
I0512 20:47:13.934607  5089 net.cpp:107] Creating Layer pool2/3x3_s2
I0512 20:47:13.935175  5089 net.cpp:455] pool2/3x3_s2 <- conv2/norm2
I0512 20:47:13.935612  5089 net.cpp:412] pool2/3x3_s2 -> pool2/3x3_s2
I0512 20:47:13.936117  5089 net.cpp:151] Setting up pool2/3x3_s2
I0512 20:47:13.936965  5089 net.cpp:158] Top shape: 8 192 28 28 (1204224)
I0512 20:47:13.937347  5089 net.cpp:166] Memory required for data: 178085888
I0512 20:47:13.937819  5089 layer_factory.hpp:77] Creating layer pool2/3x3_s2_pool2/3x3_s2_0_split
I0512 20:47:13.938551  5089 net.cpp:107] Creating Layer pool2/3x3_s2_pool2/3x3_s2_0_split
I0512 20:47:13.938854  5089 net.cpp:455] pool2/3x3_s2_pool2/3x3_s2_0_split <- pool2/3x3_s2
I0512 20:47:13.939508  5089 net.cpp:412] pool2/3x3_s2_pool2/3x3_s2_0_split -> pool2/3x3_s2_pool2/3x3_s2_0_split_0
I0512 20:47:13.939959  5089 net.cpp:412] pool2/3x3_s2_pool2/3x3_s2_0_split -> pool2/3x3_s2_pool2/3x3_s2_0_split_1
I0512 20:47:13.940477  5089 net.cpp:412] pool2/3x3_s2_pool2/3x3_s2_0_split -> pool2/3x3_s2_pool2/3x3_s2_0_split_2
I0512 20:47:13.941287  5089 net.cpp:412] pool2/3x3_s2_pool2/3x3_s2_0_split -> pool2/3x3_s2_pool2/3x3_s2_0_split_3
I0512 20:47:13.941599  5089 net.cpp:151] Setting up pool2/3x3_s2_pool2/3x3_s2_0_split
I0512 20:47:13.941853  5089 net.cpp:158] Top shape: 8 192 28 28 (1204224)
I0512 20:47:13.942142  5089 net.cpp:158] Top shape: 8 192 28 28 (1204224)
I0512 20:47:13.942476  5089 net.cpp:158] Top shape: 8 192 28 28 (1204224)
I0512 20:47:13.942803  5089 net.cpp:158] Top shape: 8 192 28 28 (1204224)
I0512 20:47:13.943174  5089 net.cpp:166] Memory required for data: 197353472
I0512 20:47:13.943434  5089 layer_factory.hpp:77] Creating layer inception_3a/1x1
I0512 20:47:13.943753  5089 net.cpp:107] Creating Layer inception_3a/1x1
I0512 20:47:13.944084  5089 net.cpp:455] inception_3a/1x1 <- pool2/3x3_s2_pool2/3x3_s2_0_split_0
I0512 20:47:13.944373  5089 net.cpp:412] inception_3a/1x1 -> inception_3a/1x1
I0512 20:47:13.944752  5089 net.cpp:151] Setting up inception_3a/1x1
I0512 20:47:13.945044  5089 net.cpp:158] Top shape: 8 64 28 28 (401408)
I0512 20:47:13.945348  5089 net.cpp:166] Memory required for data: 198959104
I0512 20:47:13.945783  5089 layer_factory.hpp:77] Creating layer inception_3a/relu_1x1
I0512 20:47:13.946142  5089 net.cpp:107] Creating Layer inception_3a/relu_1x1
I0512 20:47:13.950784  5089 net.cpp:455] inception_3a/relu_1x1 <- inception_3a/1x1
I0512 20:47:13.951261  5089 net.cpp:398] inception_3a/relu_1x1 -> inception_3a/1x1 (in-place)
I0512 20:47:13.952756  5089 net.cpp:151] Setting up inception_3a/relu_1x1
I0512 20:47:13.953059  5089 net.cpp:158] Top shape: 8 64 28 28 (401408)
I0512 20:47:13.953297  5089 net.cpp:166] Memory required for data: 200564736
I0512 20:47:13.953527  5089 layer_factory.hpp:77] Creating layer inception_3a/3x3_reduce
I0512 20:47:13.953800  5089 net.cpp:107] Creating Layer inception_3a/3x3_reduce
I0512 20:47:13.954187  5089 net.cpp:455] inception_3a/3x3_reduce <- pool2/3x3_s2_pool2/3x3_s2_0_split_1
I0512 20:47:13.954391  5089 net.cpp:412] inception_3a/3x3_reduce -> inception_3a/3x3_reduce
I0512 20:47:13.954754  5089 net.cpp:151] Setting up inception_3a/3x3_reduce
I0512 20:47:13.954977  5089 net.cpp:158] Top shape: 8 96 28 28 (602112)
I0512 20:47:13.955210  5089 net.cpp:166] Memory required for data: 202973184
I0512 20:47:13.955505  5089 layer_factory.hpp:77] Creating layer inception_3a/relu_3x3_reduce
I0512 20:47:13.955752  5089 net.cpp:107] Creating Layer inception_3a/relu_3x3_reduce
I0512 20:47:13.956001  5089 net.cpp:455] inception_3a/relu_3x3_reduce <- inception_3a/3x3_reduce
I0512 20:47:13.956287  5089 net.cpp:398] inception_3a/relu_3x3_reduce -> inception_3a/3x3_reduce (in-place)
I0512 20:47:13.956527  5089 net.cpp:151] Setting up inception_3a/relu_3x3_reduce
I0512 20:47:13.956805  5089 net.cpp:158] Top shape: 8 96 28 28 (602112)
I0512 20:47:13.957043  5089 net.cpp:166] Memory required for data: 205381632
I0512 20:47:13.957257  5089 layer_factory.hpp:77] Creating layer inception_3a/3x3
I0512 20:47:13.957541  5089 net.cpp:107] Creating Layer inception_3a/3x3
I0512 20:47:13.957780  5089 net.cpp:455] inception_3a/3x3 <- inception_3a/3x3_reduce
I0512 20:47:13.958000  5089 net.cpp:412] inception_3a/3x3 -> inception_3a/3x3
I0512 20:47:13.958814  5089 net.cpp:151] Setting up inception_3a/3x3
I0512 20:47:13.959352  5089 net.cpp:158] Top shape: 8 128 28 28 (802816)
I0512 20:47:13.959605  5089 net.cpp:166] Memory required for data: 208592896
I0512 20:47:13.959898  5089 layer_factory.hpp:77] Creating layer inception_3a/relu_3x3
I0512 20:47:13.960135  5089 net.cpp:107] Creating Layer inception_3a/relu_3x3
I0512 20:47:13.960352  5089 net.cpp:455] inception_3a/relu_3x3 <- inception_3a/3x3
I0512 20:47:13.960634  5089 net.cpp:398] inception_3a/relu_3x3 -> inception_3a/3x3 (in-place)
I0512 20:47:13.960922  5089 net.cpp:151] Setting up inception_3a/relu_3x3
I0512 20:47:13.961238  5089 net.cpp:158] Top shape: 8 128 28 28 (802816)
I0512 20:47:13.961510  5089 net.cpp:166] Memory required for data: 211804160
I0512 20:47:13.961766  5089 layer_factory.hpp:77] Creating layer inception_3a/5x5_reduce
I0512 20:47:13.961980  5089 net.cpp:107] Creating Layer inception_3a/5x5_reduce
I0512 20:47:13.966302  5089 net.cpp:455] inception_3a/5x5_reduce <- pool2/3x3_s2_pool2/3x3_s2_0_split_2
I0512 20:47:13.967140  5089 net.cpp:412] inception_3a/5x5_reduce -> inception_3a/5x5_reduce
I0512 20:47:13.967658  5089 net.cpp:151] Setting up inception_3a/5x5_reduce
I0512 20:47:13.969285  5089 net.cpp:158] Top shape: 8 16 28 28 (100352)
I0512 20:47:13.970064  5089 net.cpp:166] Memory required for data: 212205568
I0512 20:47:13.970376  5089 layer_factory.hpp:77] Creating layer inception_3a/relu_5x5_reduce
I0512 20:47:13.970662  5089 net.cpp:107] Creating Layer inception_3a/relu_5x5_reduce
I0512 20:47:13.970968  5089 net.cpp:455] inception_3a/relu_5x5_reduce <- inception_3a/5x5_reduce
I0512 20:47:13.971230  5089 net.cpp:398] inception_3a/relu_5x5_reduce -> inception_3a/5x5_reduce (in-place)
I0512 20:47:13.971573  5089 net.cpp:151] Setting up inception_3a/relu_5x5_reduce
I0512 20:47:13.971881  5089 net.cpp:158] Top shape: 8 16 28 28 (100352)
I0512 20:47:13.972177  5089 net.cpp:166] Memory required for data: 212606976
I0512 20:47:13.972422  5089 layer_factory.hpp:77] Creating layer inception_3a/5x5
I0512 20:47:13.979517  5089 net.cpp:107] Creating Layer inception_3a/5x5
I0512 20:47:13.980072  5089 net.cpp:455] inception_3a/5x5 <- inception_3a/5x5_reduce
I0512 20:47:13.980486  5089 net.cpp:412] inception_3a/5x5 -> inception_3a/5x5
I0512 20:47:13.981539  5089 net.cpp:151] Setting up inception_3a/5x5
I0512 20:47:13.982250  5089 net.cpp:158] Top shape: 8 32 28 28 (200704)
I0512 20:47:13.982656  5089 net.cpp:166] Memory required for data: 213409792
I0512 20:47:13.982970  5089 layer_factory.hpp:77] Creating layer inception_3a/relu_5x5
I0512 20:47:13.983239  5089 net.cpp:107] Creating Layer inception_3a/relu_5x5
I0512 20:47:13.983597  5089 net.cpp:455] inception_3a/relu_5x5 <- inception_3a/5x5
I0512 20:47:13.983945  5089 net.cpp:398] inception_3a/relu_5x5 -> inception_3a/5x5 (in-place)
I0512 20:47:13.984246  5089 net.cpp:151] Setting up inception_3a/relu_5x5
I0512 20:47:13.984616  5089 net.cpp:158] Top shape: 8 32 28 28 (200704)
I0512 20:47:13.984897  5089 net.cpp:166] Memory required for data: 214212608
I0512 20:47:13.985200  5089 layer_factory.hpp:77] Creating layer inception_3a/pool
I0512 20:47:13.985527  5089 net.cpp:107] Creating Layer inception_3a/pool
I0512 20:47:13.985879  5089 net.cpp:455] inception_3a/pool <- pool2/3x3_s2_pool2/3x3_s2_0_split_3
I0512 20:47:13.986151  5089 net.cpp:412] inception_3a/pool -> inception_3a/pool
I0512 20:47:13.986435  5089 net.cpp:151] Setting up inception_3a/pool
I0512 20:47:13.986717  5089 net.cpp:158] Top shape: 8 192 28 28 (1204224)
I0512 20:47:13.987030  5089 net.cpp:166] Memory required for data: 219029504
I0512 20:47:13.987325  5089 layer_factory.hpp:77] Creating layer inception_3a/pool_proj
I0512 20:47:13.987627  5089 net.cpp:107] Creating Layer inception_3a/pool_proj
I0512 20:47:13.987931  5089 net.cpp:455] inception_3a/pool_proj <- inception_3a/pool
I0512 20:47:13.988248  5089 net.cpp:412] inception_3a/pool_proj -> inception_3a/pool_proj
I0512 20:47:13.988687  5089 net.cpp:151] Setting up inception_3a/pool_proj
I0512 20:47:13.988939  5089 net.cpp:158] Top shape: 8 32 28 28 (200704)
I0512 20:47:13.989184  5089 net.cpp:166] Memory required for data: 219832320
I0512 20:47:13.989492  5089 layer_factory.hpp:77] Creating layer inception_3a/relu_pool_proj
I0512 20:47:13.989799  5089 net.cpp:107] Creating Layer inception_3a/relu_pool_proj
I0512 20:47:13.990083  5089 net.cpp:455] inception_3a/relu_pool_proj <- inception_3a/pool_proj
I0512 20:47:13.990331  5089 net.cpp:398] inception_3a/relu_pool_proj -> inception_3a/pool_proj (in-place)
I0512 20:47:13.990559  5089 net.cpp:151] Setting up inception_3a/relu_pool_proj
I0512 20:47:13.990864  5089 net.cpp:158] Top shape: 8 32 28 28 (200704)
I0512 20:47:13.991114  5089 net.cpp:166] Memory required for data: 220635136
I0512 20:47:13.991343  5089 layer_factory.hpp:77] Creating layer inception_3a/output
I0512 20:47:13.991591  5089 net.cpp:107] Creating Layer inception_3a/output
I0512 20:47:13.991830  5089 net.cpp:455] inception_3a/output <- inception_3a/1x1
I0512 20:47:13.992136  5089 net.cpp:455] inception_3a/output <- inception_3a/3x3
I0512 20:47:13.992406  5089 net.cpp:455] inception_3a/output <- inception_3a/5x5
I0512 20:47:13.992668  5089 net.cpp:455] inception_3a/output <- inception_3a/pool_proj
I0512 20:47:13.992949  5089 net.cpp:412] inception_3a/output -> inception_3a/output
I0512 20:47:13.993208  5089 net.cpp:151] Setting up inception_3a/output
I0512 20:47:13.993501  5089 net.cpp:158] Top shape: 8 256 28 28 (1605632)
I0512 20:47:13.993770  5089 net.cpp:166] Memory required for data: 227057664
I0512 20:47:13.994017  5089 layer_factory.hpp:77] Creating layer inception_3a/output_inception_3a/output_0_split
I0512 20:47:13.994289  5089 net.cpp:107] Creating Layer inception_3a/output_inception_3a/output_0_split
I0512 20:47:13.994536  5089 net.cpp:455] inception_3a/output_inception_3a/output_0_split <- inception_3a/output
I0512 20:47:13.994796  5089 net.cpp:412] inception_3a/output_inception_3a/output_0_split -> inception_3a/output_inception_3a/output_0_split_0
I0512 20:47:13.995097  5089 net.cpp:412] inception_3a/output_inception_3a/output_0_split -> inception_3a/output_inception_3a/output_0_split_1
I0512 20:47:13.995404  5089 net.cpp:412] inception_3a/output_inception_3a/output_0_split -> inception_3a/output_inception_3a/output_0_split_2
I0512 20:47:13.995676  5089 net.cpp:412] inception_3a/output_inception_3a/output_0_split -> inception_3a/output_inception_3a/output_0_split_3
I0512 20:47:13.995970  5089 net.cpp:151] Setting up inception_3a/output_inception_3a/output_0_split
I0512 20:47:13.996922  5089 net.cpp:158] Top shape: 8 256 28 28 (1605632)
I0512 20:47:13.998343  5089 net.cpp:158] Top shape: 8 256 28 28 (1605632)
I0512 20:47:13.998659  5089 net.cpp:158] Top shape: 8 256 28 28 (1605632)
I0512 20:47:14.000051  5089 net.cpp:158] Top shape: 8 256 28 28 (1605632)
I0512 20:47:14.000473  5089 net.cpp:166] Memory required for data: 252747776
I0512 20:47:14.004087  5089 layer_factory.hpp:77] Creating layer inception_3b/1x1
I0512 20:47:14.004526  5089 net.cpp:107] Creating Layer inception_3b/1x1
I0512 20:47:14.004812  5089 net.cpp:455] inception_3b/1x1 <- inception_3a/output_inception_3a/output_0_split_0
I0512 20:47:14.005085  5089 net.cpp:412] inception_3b/1x1 -> inception_3b/1x1
I0512 20:47:14.005619  5089 net.cpp:151] Setting up inception_3b/1x1
I0512 20:47:14.005923  5089 net.cpp:158] Top shape: 8 128 28 28 (802816)
I0512 20:47:14.006170  5089 net.cpp:166] Memory required for data: 255959040
I0512 20:47:14.008029  5089 layer_factory.hpp:77] Creating layer inception_3b/relu_1x1
I0512 20:47:14.008308  5089 net.cpp:107] Creating Layer inception_3b/relu_1x1
I0512 20:47:14.008601  5089 net.cpp:455] inception_3b/relu_1x1 <- inception_3b/1x1
I0512 20:47:14.008865  5089 net.cpp:398] inception_3b/relu_1x1 -> inception_3b/1x1 (in-place)
I0512 20:47:14.009145  5089 net.cpp:151] Setting up inception_3b/relu_1x1
I0512 20:47:14.009461  5089 net.cpp:158] Top shape: 8 128 28 28 (802816)
I0512 20:47:14.009732  5089 net.cpp:166] Memory required for data: 259170304
I0512 20:47:14.010020  5089 layer_factory.hpp:77] Creating layer inception_3b/3x3_reduce
I0512 20:47:14.010270  5089 net.cpp:107] Creating Layer inception_3b/3x3_reduce
I0512 20:47:14.010574  5089 net.cpp:455] inception_3b/3x3_reduce <- inception_3a/output_inception_3a/output_0_split_1
I0512 20:47:14.011025  5089 net.cpp:412] inception_3b/3x3_reduce -> inception_3b/3x3_reduce
I0512 20:47:14.011525  5089 net.cpp:151] Setting up inception_3b/3x3_reduce
I0512 20:47:14.011843  5089 net.cpp:158] Top shape: 8 128 28 28 (802816)
I0512 20:47:14.012089  5089 net.cpp:166] Memory required for data: 262381568
I0512 20:47:14.012318  5089 layer_factory.hpp:77] Creating layer inception_3b/relu_3x3_reduce
I0512 20:47:14.012661  5089 net.cpp:107] Creating Layer inception_3b/relu_3x3_reduce
I0512 20:47:14.012936  5089 net.cpp:455] inception_3b/relu_3x3_reduce <- inception_3b/3x3_reduce
I0512 20:47:14.013221  5089 net.cpp:398] inception_3b/relu_3x3_reduce -> inception_3b/3x3_reduce (in-place)
I0512 20:47:14.013487  5089 net.cpp:151] Setting up inception_3b/relu_3x3_reduce
I0512 20:47:14.013705  5089 net.cpp:158] Top shape: 8 128 28 28 (802816)
I0512 20:47:14.013895  5089 net.cpp:166] Memory required for data: 265592832
I0512 20:47:14.014111  5089 layer_factory.hpp:77] Creating layer inception_3b/3x3
I0512 20:47:14.014323  5089 net.cpp:107] Creating Layer inception_3b/3x3
I0512 20:47:14.014526  5089 net.cpp:455] inception_3b/3x3 <- inception_3b/3x3_reduce
I0512 20:47:14.014784  5089 net.cpp:412] inception_3b/3x3 -> inception_3b/3x3
I0512 20:47:14.016469  5089 net.cpp:151] Setting up inception_3b/3x3
I0512 20:47:14.016793  5089 net.cpp:158] Top shape: 8 192 28 28 (1204224)
I0512 20:47:14.017050  5089 net.cpp:166] Memory required for data: 270409728
I0512 20:47:14.017310  5089 layer_factory.hpp:77] Creating layer inception_3b/relu_3x3
I0512 20:47:14.017596  5089 net.cpp:107] Creating Layer inception_3b/relu_3x3
I0512 20:47:14.017823  5089 net.cpp:455] inception_3b/relu_3x3 <- inception_3b/3x3
I0512 20:47:14.018074  5089 net.cpp:398] inception_3b/relu_3x3 -> inception_3b/3x3 (in-place)
I0512 20:47:14.018306  5089 net.cpp:151] Setting up inception_3b/relu_3x3
I0512 20:47:14.024988  5089 net.cpp:158] Top shape: 8 192 28 28 (1204224)
I0512 20:47:14.025341  5089 net.cpp:166] Memory required for data: 275226624
I0512 20:47:14.025626  5089 layer_factory.hpp:77] Creating layer inception_3b/5x5_reduce
I0512 20:47:14.025897  5089 net.cpp:107] Creating Layer inception_3b/5x5_reduce
I0512 20:47:14.026159  5089 net.cpp:455] inception_3b/5x5_reduce <- inception_3a/output_inception_3a/output_0_split_2
I0512 20:47:14.026437  5089 net.cpp:412] inception_3b/5x5_reduce -> inception_3b/5x5_reduce
I0512 20:47:14.026753  5089 net.cpp:151] Setting up inception_3b/5x5_reduce
I0512 20:47:14.035269  5089 net.cpp:158] Top shape: 8 32 28 28 (200704)
I0512 20:47:14.035625  5089 net.cpp:166] Memory required for data: 276029440
I0512 20:47:14.035894  5089 layer_factory.hpp:77] Creating layer inception_3b/relu_5x5_reduce
I0512 20:47:14.036232  5089 net.cpp:107] Creating Layer inception_3b/relu_5x5_reduce
I0512 20:47:14.036451  5089 net.cpp:455] inception_3b/relu_5x5_reduce <- inception_3b/5x5_reduce
I0512 20:47:14.036722  5089 net.cpp:398] inception_3b/relu_5x5_reduce -> inception_3b/5x5_reduce (in-place)
I0512 20:47:14.037003  5089 net.cpp:151] Setting up inception_3b/relu_5x5_reduce
I0512 20:47:14.037215  5089 net.cpp:158] Top shape: 8 32 28 28 (200704)
I0512 20:47:14.037467  5089 net.cpp:166] Memory required for data: 276832256
I0512 20:47:14.037747  5089 layer_factory.hpp:77] Creating layer inception_3b/5x5
I0512 20:47:14.037982  5089 net.cpp:107] Creating Layer inception_3b/5x5
I0512 20:47:14.038229  5089 net.cpp:455] inception_3b/5x5 <- inception_3b/5x5_reduce
I0512 20:47:14.038475  5089 net.cpp:412] inception_3b/5x5 -> inception_3b/5x5
I0512 20:47:14.039166  5089 net.cpp:151] Setting up inception_3b/5x5
I0512 20:47:14.039376  5089 net.cpp:158] Top shape: 8 96 28 28 (602112)
I0512 20:47:14.039602  5089 net.cpp:166] Memory required for data: 279240704
I0512 20:47:14.039867  5089 layer_factory.hpp:77] Creating layer inception_3b/relu_5x5
I0512 20:47:14.040099  5089 net.cpp:107] Creating Layer inception_3b/relu_5x5
I0512 20:47:14.040355  5089 net.cpp:455] inception_3b/relu_5x5 <- inception_3b/5x5
I0512 20:47:14.040670  5089 net.cpp:398] inception_3b/relu_5x5 -> inception_3b/5x5 (in-place)
I0512 20:47:14.040971  5089 net.cpp:151] Setting up inception_3b/relu_5x5
I0512 20:47:14.041303  5089 net.cpp:158] Top shape: 8 96 28 28 (602112)
I0512 20:47:14.041502  5089 net.cpp:166] Memory required for data: 281649152
I0512 20:47:14.041792  5089 layer_factory.hpp:77] Creating layer inception_3b/pool
I0512 20:47:14.042106  5089 net.cpp:107] Creating Layer inception_3b/pool
I0512 20:47:14.042351  5089 net.cpp:455] inception_3b/pool <- inception_3a/output_inception_3a/output_0_split_3
I0512 20:47:14.042598  5089 net.cpp:412] inception_3b/pool -> inception_3b/pool
I0512 20:47:14.043009  5089 net.cpp:151] Setting up inception_3b/pool
I0512 20:47:14.043216  5089 net.cpp:158] Top shape: 8 256 28 28 (1605632)
I0512 20:47:14.043419  5089 net.cpp:166] Memory required for data: 288071680
I0512 20:47:14.043634  5089 layer_factory.hpp:77] Creating layer inception_3b/pool_proj
I0512 20:47:14.043814  5089 net.cpp:107] Creating Layer inception_3b/pool_proj
I0512 20:47:14.044004  5089 net.cpp:455] inception_3b/pool_proj <- inception_3b/pool
I0512 20:47:14.044208  5089 net.cpp:412] inception_3b/pool_proj -> inception_3b/pool_proj
I0512 20:47:14.044535  5089 net.cpp:151] Setting up inception_3b/pool_proj
I0512 20:47:14.044752  5089 net.cpp:158] Top shape: 8 64 28 28 (401408)
I0512 20:47:14.044976  5089 net.cpp:166] Memory required for data: 289677312
I0512 20:47:14.045238  5089 layer_factory.hpp:77] Creating layer inception_3b/relu_pool_proj
I0512 20:47:14.046169  5089 net.cpp:107] Creating Layer inception_3b/relu_pool_proj
I0512 20:47:14.046722  5089 net.cpp:455] inception_3b/relu_pool_proj <- inception_3b/pool_proj
I0512 20:47:14.047658  5089 net.cpp:398] inception_3b/relu_pool_proj -> inception_3b/pool_proj (in-place)
I0512 20:47:14.048272  5089 net.cpp:151] Setting up inception_3b/relu_pool_proj
I0512 20:47:14.048817  5089 net.cpp:158] Top shape: 8 64 28 28 (401408)
I0512 20:47:14.049906  5089 net.cpp:166] Memory required for data: 291282944
I0512 20:47:14.050258  5089 layer_factory.hpp:77] Creating layer inception_3b/output
I0512 20:47:14.050617  5089 net.cpp:107] Creating Layer inception_3b/output
I0512 20:47:14.051654  5089 net.cpp:455] inception_3b/output <- inception_3b/1x1
I0512 20:47:14.051949  5089 net.cpp:455] inception_3b/output <- inception_3b/3x3
I0512 20:47:14.052470  5089 net.cpp:455] inception_3b/output <- inception_3b/5x5
I0512 20:47:14.052739  5089 net.cpp:455] inception_3b/output <- inception_3b/pool_proj
I0512 20:47:14.053361  5089 net.cpp:412] inception_3b/output -> inception_3b/output
I0512 20:47:14.053871  5089 net.cpp:151] Setting up inception_3b/output
I0512 20:47:14.054561  5089 net.cpp:158] Top shape: 8 480 28 28 (3010560)
I0512 20:47:14.055078  5089 net.cpp:166] Memory required for data: 303325184
I0512 20:47:14.055704  5089 layer_factory.hpp:77] Creating layer pool3/3x3_s2
I0512 20:47:14.056535  5089 net.cpp:107] Creating Layer pool3/3x3_s2
I0512 20:47:14.057009  5089 net.cpp:455] pool3/3x3_s2 <- inception_3b/output
I0512 20:47:14.057561  5089 net.cpp:412] pool3/3x3_s2 -> pool3/3x3_s2
I0512 20:47:14.058383  5089 net.cpp:151] Setting up pool3/3x3_s2
I0512 20:47:14.059092  5089 net.cpp:158] Top shape: 8 480 14 14 (752640)
I0512 20:47:14.059353  5089 net.cpp:166] Memory required for data: 306335744
I0512 20:47:14.059672  5089 layer_factory.hpp:77] Creating layer pool3/3x3_s2_pool3/3x3_s2_0_split
I0512 20:47:14.059998  5089 net.cpp:107] Creating Layer pool3/3x3_s2_pool3/3x3_s2_0_split
I0512 20:47:14.060317  5089 net.cpp:455] pool3/3x3_s2_pool3/3x3_s2_0_split <- pool3/3x3_s2
I0512 20:47:14.060705  5089 net.cpp:412] pool3/3x3_s2_pool3/3x3_s2_0_split -> pool3/3x3_s2_pool3/3x3_s2_0_split_0
I0512 20:47:14.061409  5089 net.cpp:412] pool3/3x3_s2_pool3/3x3_s2_0_split -> pool3/3x3_s2_pool3/3x3_s2_0_split_1
I0512 20:47:14.061885  5089 net.cpp:412] pool3/3x3_s2_pool3/3x3_s2_0_split -> pool3/3x3_s2_pool3/3x3_s2_0_split_2
I0512 20:47:14.062302  5089 net.cpp:412] pool3/3x3_s2_pool3/3x3_s2_0_split -> pool3/3x3_s2_pool3/3x3_s2_0_split_3
I0512 20:47:14.063222  5089 net.cpp:151] Setting up pool3/3x3_s2_pool3/3x3_s2_0_split
I0512 20:47:14.063673  5089 net.cpp:158] Top shape: 8 480 14 14 (752640)
I0512 20:47:14.064424  5089 net.cpp:158] Top shape: 8 480 14 14 (752640)
I0512 20:47:14.065104  5089 net.cpp:158] Top shape: 8 480 14 14 (752640)
I0512 20:47:14.065531  5089 net.cpp:158] Top shape: 8 480 14 14 (752640)
I0512 20:47:14.066051  5089 net.cpp:166] Memory required for data: 318377984
I0512 20:47:14.066419  5089 layer_factory.hpp:77] Creating layer inception_4a/1x1
I0512 20:47:14.067132  5089 net.cpp:107] Creating Layer inception_4a/1x1
I0512 20:47:14.067626  5089 net.cpp:455] inception_4a/1x1 <- pool3/3x3_s2_pool3/3x3_s2_0_split_0
I0512 20:47:14.068181  5089 net.cpp:412] inception_4a/1x1 -> inception_4a/1x1
I0512 20:47:14.069864  5089 net.cpp:151] Setting up inception_4a/1x1
I0512 20:47:14.071221  5089 net.cpp:158] Top shape: 8 192 14 14 (301056)
I0512 20:47:14.071585  5089 net.cpp:166] Memory required for data: 319582208
I0512 20:47:14.072180  5089 layer_factory.hpp:77] Creating layer inception_4a/relu_1x1
I0512 20:47:14.072557  5089 net.cpp:107] Creating Layer inception_4a/relu_1x1
I0512 20:47:14.072892  5089 net.cpp:455] inception_4a/relu_1x1 <- inception_4a/1x1
I0512 20:47:14.073416  5089 net.cpp:398] inception_4a/relu_1x1 -> inception_4a/1x1 (in-place)
I0512 20:47:14.073899  5089 net.cpp:151] Setting up inception_4a/relu_1x1
I0512 20:47:14.074139  5089 net.cpp:158] Top shape: 8 192 14 14 (301056)
I0512 20:47:14.074487  5089 net.cpp:166] Memory required for data: 320786432
I0512 20:47:14.074873  5089 layer_factory.hpp:77] Creating layer inception_4a/3x3_reduce
I0512 20:47:14.075345  5089 net.cpp:107] Creating Layer inception_4a/3x3_reduce
I0512 20:47:14.075698  5089 net.cpp:455] inception_4a/3x3_reduce <- pool3/3x3_s2_pool3/3x3_s2_0_split_1
I0512 20:47:14.075985  5089 net.cpp:412] inception_4a/3x3_reduce -> inception_4a/3x3_reduce
I0512 20:47:14.076897  5089 net.cpp:151] Setting up inception_4a/3x3_reduce
I0512 20:47:14.077245  5089 net.cpp:158] Top shape: 8 96 14 14 (150528)
I0512 20:47:14.077709  5089 net.cpp:166] Memory required for data: 321388544
I0512 20:47:14.078193  5089 layer_factory.hpp:77] Creating layer inception_4a/relu_3x3_reduce
I0512 20:47:14.078634  5089 net.cpp:107] Creating Layer inception_4a/relu_3x3_reduce
I0512 20:47:14.079461  5089 net.cpp:455] inception_4a/relu_3x3_reduce <- inception_4a/3x3_reduce
I0512 20:47:14.079797  5089 net.cpp:398] inception_4a/relu_3x3_reduce -> inception_4a/3x3_reduce (in-place)
I0512 20:47:14.080169  5089 net.cpp:151] Setting up inception_4a/relu_3x3_reduce
I0512 20:47:14.081542  5089 net.cpp:158] Top shape: 8 96 14 14 (150528)
I0512 20:47:14.082391  5089 net.cpp:166] Memory required for data: 321990656
I0512 20:47:14.082700  5089 layer_factory.hpp:77] Creating layer inception_4a/3x3
I0512 20:47:14.083015  5089 net.cpp:107] Creating Layer inception_4a/3x3
I0512 20:47:14.083389  5089 net.cpp:455] inception_4a/3x3 <- inception_4a/3x3_reduce
I0512 20:47:14.083689  5089 net.cpp:412] inception_4a/3x3 -> inception_4a/3x3
I0512 20:47:14.086499  5089 net.cpp:151] Setting up inception_4a/3x3
I0512 20:47:14.087064  5089 net.cpp:158] Top shape: 8 208 14 14 (326144)
I0512 20:47:14.087744  5089 net.cpp:166] Memory required for data: 323295232
I0512 20:47:14.088596  5089 layer_factory.hpp:77] Creating layer inception_4a/relu_3x3
I0512 20:47:14.089530  5089 net.cpp:107] Creating Layer inception_4a/relu_3x3
I0512 20:47:14.090052  5089 net.cpp:455] inception_4a/relu_3x3 <- inception_4a/3x3
I0512 20:47:14.090373  5089 net.cpp:398] inception_4a/relu_3x3 -> inception_4a/3x3 (in-place)
I0512 20:47:14.090651  5089 net.cpp:151] Setting up inception_4a/relu_3x3
I0512 20:47:14.091408  5089 net.cpp:158] Top shape: 8 208 14 14 (326144)
I0512 20:47:14.091821  5089 net.cpp:166] Memory required for data: 324599808
I0512 20:47:14.092159  5089 layer_factory.hpp:77] Creating layer inception_4a/5x5_reduce
I0512 20:47:14.092628  5089 net.cpp:107] Creating Layer inception_4a/5x5_reduce
I0512 20:47:14.093647  5089 net.cpp:455] inception_4a/5x5_reduce <- pool3/3x3_s2_pool3/3x3_s2_0_split_2
I0512 20:47:14.094002  5089 net.cpp:412] inception_4a/5x5_reduce -> inception_4a/5x5_reduce
I0512 20:47:14.094851  5089 net.cpp:151] Setting up inception_4a/5x5_reduce
I0512 20:47:14.095816  5089 net.cpp:158] Top shape: 8 16 14 14 (25088)
I0512 20:47:14.096446  5089 net.cpp:166] Memory required for data: 324700160
I0512 20:47:14.096897  5089 layer_factory.hpp:77] Creating layer inception_4a/relu_5x5_reduce
I0512 20:47:14.097616  5089 net.cpp:107] Creating Layer inception_4a/relu_5x5_reduce
I0512 20:47:14.097848  5089 net.cpp:455] inception_4a/relu_5x5_reduce <- inception_4a/5x5_reduce
I0512 20:47:14.098124  5089 net.cpp:398] inception_4a/relu_5x5_reduce -> inception_4a/5x5_reduce (in-place)
I0512 20:47:14.098366  5089 net.cpp:151] Setting up inception_4a/relu_5x5_reduce
I0512 20:47:14.098629  5089 net.cpp:158] Top shape: 8 16 14 14 (25088)
I0512 20:47:14.099166  5089 net.cpp:166] Memory required for data: 324800512
I0512 20:47:14.099493  5089 layer_factory.hpp:77] Creating layer inception_4a/5x5
I0512 20:47:14.099961  5089 net.cpp:107] Creating Layer inception_4a/5x5
I0512 20:47:14.100888  5089 net.cpp:455] inception_4a/5x5 <- inception_4a/5x5_reduce
I0512 20:47:14.101423  5089 net.cpp:412] inception_4a/5x5 -> inception_4a/5x5
I0512 20:47:14.102608  5089 net.cpp:151] Setting up inception_4a/5x5
I0512 20:47:14.103163  5089 net.cpp:158] Top shape: 8 48 14 14 (75264)
I0512 20:47:14.104475  5089 net.cpp:166] Memory required for data: 325101568
I0512 20:47:14.104877  5089 layer_factory.hpp:77] Creating layer inception_4a/relu_5x5
I0512 20:47:14.105178  5089 net.cpp:107] Creating Layer inception_4a/relu_5x5
I0512 20:47:14.105720  5089 net.cpp:455] inception_4a/relu_5x5 <- inception_4a/5x5
I0512 20:47:14.106184  5089 net.cpp:398] inception_4a/relu_5x5 -> inception_4a/5x5 (in-place)
I0512 20:47:14.107322  5089 net.cpp:151] Setting up inception_4a/relu_5x5
I0512 20:47:14.108016  5089 net.cpp:158] Top shape: 8 48 14 14 (75264)
I0512 20:47:14.108443  5089 net.cpp:166] Memory required for data: 325402624
I0512 20:47:14.108974  5089 layer_factory.hpp:77] Creating layer inception_4a/pool
I0512 20:47:14.109283  5089 net.cpp:107] Creating Layer inception_4a/pool
I0512 20:47:14.109544  5089 net.cpp:455] inception_4a/pool <- pool3/3x3_s2_pool3/3x3_s2_0_split_3
I0512 20:47:14.110020  5089 net.cpp:412] inception_4a/pool -> inception_4a/pool
I0512 20:47:14.110402  5089 net.cpp:151] Setting up inception_4a/pool
I0512 20:47:14.110999  5089 net.cpp:158] Top shape: 8 480 14 14 (752640)
I0512 20:47:14.111407  5089 net.cpp:166] Memory required for data: 328413184
I0512 20:47:14.111863  5089 layer_factory.hpp:77] Creating layer inception_4a/pool_proj
I0512 20:47:14.112599  5089 net.cpp:107] Creating Layer inception_4a/pool_proj
I0512 20:47:14.113452  5089 net.cpp:455] inception_4a/pool_proj <- inception_4a/pool
I0512 20:47:14.114125  5089 net.cpp:412] inception_4a/pool_proj -> inception_4a/pool_proj
I0512 20:47:14.115221  5089 net.cpp:151] Setting up inception_4a/pool_proj
I0512 20:47:14.115727  5089 net.cpp:158] Top shape: 8 64 14 14 (100352)
I0512 20:47:14.116189  5089 net.cpp:166] Memory required for data: 328814592
I0512 20:47:14.116747  5089 layer_factory.hpp:77] Creating layer inception_4a/relu_pool_proj
I0512 20:47:14.117373  5089 net.cpp:107] Creating Layer inception_4a/relu_pool_proj
I0512 20:47:14.117697  5089 net.cpp:455] inception_4a/relu_pool_proj <- inception_4a/pool_proj
I0512 20:47:14.118651  5089 net.cpp:398] inception_4a/relu_pool_proj -> inception_4a/pool_proj (in-place)
I0512 20:47:14.119134  5089 net.cpp:151] Setting up inception_4a/relu_pool_proj
I0512 20:47:14.119453  5089 net.cpp:158] Top shape: 8 64 14 14 (100352)
I0512 20:47:14.120374  5089 net.cpp:166] Memory required for data: 329216000
I0512 20:47:14.120679  5089 layer_factory.hpp:77] Creating layer inception_4a/output
I0512 20:47:14.121064  5089 net.cpp:107] Creating Layer inception_4a/output
I0512 20:47:14.122258  5089 net.cpp:455] inception_4a/output <- inception_4a/1x1
I0512 20:47:14.122998  5089 net.cpp:455] inception_4a/output <- inception_4a/3x3
I0512 20:47:14.123500  5089 net.cpp:455] inception_4a/output <- inception_4a/5x5
I0512 20:47:14.124310  5089 net.cpp:455] inception_4a/output <- inception_4a/pool_proj
I0512 20:47:14.124620  5089 net.cpp:412] inception_4a/output -> inception_4a/output
I0512 20:47:14.124924  5089 net.cpp:151] Setting up inception_4a/output
I0512 20:47:14.125517  5089 net.cpp:158] Top shape: 8 512 14 14 (802816)
I0512 20:47:14.126372  5089 net.cpp:166] Memory required for data: 332427264
I0512 20:47:14.126911  5089 layer_factory.hpp:77] Creating layer inception_4a/output_inception_4a/output_0_split
I0512 20:47:14.127887  5089 net.cpp:107] Creating Layer inception_4a/output_inception_4a/output_0_split
I0512 20:47:14.128404  5089 net.cpp:455] inception_4a/output_inception_4a/output_0_split <- inception_4a/output
I0512 20:47:14.129323  5089 net.cpp:412] inception_4a/output_inception_4a/output_0_split -> inception_4a/output_inception_4a/output_0_split_0
I0512 20:47:14.129622  5089 net.cpp:412] inception_4a/output_inception_4a/output_0_split -> inception_4a/output_inception_4a/output_0_split_1
I0512 20:47:14.130080  5089 net.cpp:412] inception_4a/output_inception_4a/output_0_split -> inception_4a/output_inception_4a/output_0_split_2
I0512 20:47:14.130355  5089 net.cpp:412] inception_4a/output_inception_4a/output_0_split -> inception_4a/output_inception_4a/output_0_split_3
I0512 20:47:14.130719  5089 net.cpp:151] Setting up inception_4a/output_inception_4a/output_0_split
I0512 20:47:14.131672  5089 net.cpp:158] Top shape: 8 512 14 14 (802816)
I0512 20:47:14.132414  5089 net.cpp:158] Top shape: 8 512 14 14 (802816)
I0512 20:47:14.132951  5089 net.cpp:158] Top shape: 8 512 14 14 (802816)
I0512 20:47:14.133494  5089 net.cpp:158] Top shape: 8 512 14 14 (802816)
I0512 20:47:14.134555  5089 net.cpp:166] Memory required for data: 345272320
I0512 20:47:14.135408  5089 layer_factory.hpp:77] Creating layer inception_4b/1x1
I0512 20:47:14.136817  5089 net.cpp:107] Creating Layer inception_4b/1x1
I0512 20:47:14.137589  5089 net.cpp:455] inception_4b/1x1 <- inception_4a/output_inception_4a/output_0_split_0
I0512 20:47:14.137874  5089 net.cpp:412] inception_4b/1x1 -> inception_4b/1x1
I0512 20:47:14.139660  5089 net.cpp:151] Setting up inception_4b/1x1
I0512 20:47:14.140519  5089 net.cpp:158] Top shape: 8 160 14 14 (250880)
I0512 20:47:14.141013  5089 net.cpp:166] Memory required for data: 346275840
I0512 20:47:14.141782  5089 layer_factory.hpp:77] Creating layer inception_4b/relu_1x1
I0512 20:47:14.142590  5089 net.cpp:107] Creating Layer inception_4b/relu_1x1
I0512 20:47:14.144177  5089 net.cpp:455] inception_4b/relu_1x1 <- inception_4b/1x1
I0512 20:47:14.144548  5089 net.cpp:398] inception_4b/relu_1x1 -> inception_4b/1x1 (in-place)
I0512 20:47:14.145256  5089 net.cpp:151] Setting up inception_4b/relu_1x1
I0512 20:47:14.145871  5089 net.cpp:158] Top shape: 8 160 14 14 (250880)
I0512 20:47:14.146383  5089 net.cpp:166] Memory required for data: 347279360
I0512 20:47:14.146719  5089 layer_factory.hpp:77] Creating layer inception_4b/3x3_reduce
I0512 20:47:14.147183  5089 net.cpp:107] Creating Layer inception_4b/3x3_reduce
I0512 20:47:14.148025  5089 net.cpp:455] inception_4b/3x3_reduce <- inception_4a/output_inception_4a/output_0_split_1
I0512 20:47:14.148386  5089 net.cpp:412] inception_4b/3x3_reduce -> inception_4b/3x3_reduce
I0512 20:47:14.149440  5089 net.cpp:151] Setting up inception_4b/3x3_reduce
I0512 20:47:14.149736  5089 net.cpp:158] Top shape: 8 112 14 14 (175616)
I0512 20:47:14.150017  5089 net.cpp:166] Memory required for data: 347981824
I0512 20:47:14.150748  5089 layer_factory.hpp:77] Creating layer inception_4b/relu_3x3_reduce
I0512 20:47:14.151217  5089 net.cpp:107] Creating Layer inception_4b/relu_3x3_reduce
I0512 20:47:14.151489  5089 net.cpp:455] inception_4b/relu_3x3_reduce <- inception_4b/3x3_reduce
I0512 20:47:14.152096  5089 net.cpp:398] inception_4b/relu_3x3_reduce -> inception_4b/3x3_reduce (in-place)
I0512 20:47:14.152747  5089 net.cpp:151] Setting up inception_4b/relu_3x3_reduce
I0512 20:47:14.153496  5089 net.cpp:158] Top shape: 8 112 14 14 (175616)
I0512 20:47:14.154172  5089 net.cpp:166] Memory required for data: 348684288
I0512 20:47:14.154984  5089 layer_factory.hpp:77] Creating layer inception_4b/3x3
I0512 20:47:14.155762  5089 net.cpp:107] Creating Layer inception_4b/3x3
I0512 20:47:14.156337  5089 net.cpp:455] inception_4b/3x3 <- inception_4b/3x3_reduce
I0512 20:47:14.156708  5089 net.cpp:412] inception_4b/3x3 -> inception_4b/3x3
I0512 20:47:14.159727  5089 net.cpp:151] Setting up inception_4b/3x3
I0512 20:47:14.160945  5089 net.cpp:158] Top shape: 8 224 14 14 (351232)
I0512 20:47:14.161576  5089 net.cpp:166] Memory required for data: 350089216
I0512 20:47:14.162467  5089 layer_factory.hpp:77] Creating layer inception_4b/relu_3x3
I0512 20:47:14.162775  5089 net.cpp:107] Creating Layer inception_4b/relu_3x3
I0512 20:47:14.163547  5089 net.cpp:455] inception_4b/relu_3x3 <- inception_4b/3x3
I0512 20:47:14.164897  5089 net.cpp:398] inception_4b/relu_3x3 -> inception_4b/3x3 (in-place)
I0512 20:47:14.165922  5089 net.cpp:151] Setting up inception_4b/relu_3x3
I0512 20:47:14.166548  5089 net.cpp:158] Top shape: 8 224 14 14 (351232)
I0512 20:47:14.167340  5089 net.cpp:166] Memory required for data: 351494144
I0512 20:47:14.168073  5089 layer_factory.hpp:77] Creating layer inception_4b/5x5_reduce
I0512 20:47:14.168798  5089 net.cpp:107] Creating Layer inception_4b/5x5_reduce
I0512 20:47:14.170471  5089 net.cpp:455] inception_4b/5x5_reduce <- inception_4a/output_inception_4a/output_0_split_2
I0512 20:47:14.171183  5089 net.cpp:412] inception_4b/5x5_reduce -> inception_4b/5x5_reduce
I0512 20:47:14.171835  5089 net.cpp:151] Setting up inception_4b/5x5_reduce
I0512 20:47:14.172133  5089 net.cpp:158] Top shape: 8 24 14 14 (37632)
I0512 20:47:14.172616  5089 net.cpp:166] Memory required for data: 351644672
I0512 20:47:14.173465  5089 layer_factory.hpp:77] Creating layer inception_4b/relu_5x5_reduce
I0512 20:47:14.174065  5089 net.cpp:107] Creating Layer inception_4b/relu_5x5_reduce
I0512 20:47:14.174998  5089 net.cpp:455] inception_4b/relu_5x5_reduce <- inception_4b/5x5_reduce
I0512 20:47:14.175731  5089 net.cpp:398] inception_4b/relu_5x5_reduce -> inception_4b/5x5_reduce (in-place)
I0512 20:47:14.176774  5089 net.cpp:151] Setting up inception_4b/relu_5x5_reduce
I0512 20:47:14.177597  5089 net.cpp:158] Top shape: 8 24 14 14 (37632)
I0512 20:47:14.177932  5089 net.cpp:166] Memory required for data: 351795200
I0512 20:47:14.178295  5089 layer_factory.hpp:77] Creating layer inception_4b/5x5
I0512 20:47:14.179086  5089 net.cpp:107] Creating Layer inception_4b/5x5
I0512 20:47:14.179680  5089 net.cpp:455] inception_4b/5x5 <- inception_4b/5x5_reduce
I0512 20:47:14.180516  5089 net.cpp:412] inception_4b/5x5 -> inception_4b/5x5
I0512 20:47:14.181823  5089 net.cpp:151] Setting up inception_4b/5x5
I0512 20:47:14.182621  5089 net.cpp:158] Top shape: 8 64 14 14 (100352)
I0512 20:47:14.183009  5089 net.cpp:166] Memory required for data: 352196608
I0512 20:47:14.183293  5089 layer_factory.hpp:77] Creating layer inception_4b/relu_5x5
I0512 20:47:14.184300  5089 net.cpp:107] Creating Layer inception_4b/relu_5x5
I0512 20:47:14.185241  5089 net.cpp:455] inception_4b/relu_5x5 <- inception_4b/5x5
I0512 20:47:14.186422  5089 net.cpp:398] inception_4b/relu_5x5 -> inception_4b/5x5 (in-place)
I0512 20:47:14.187052  5089 net.cpp:151] Setting up inception_4b/relu_5x5
I0512 20:47:14.187618  5089 net.cpp:158] Top shape: 8 64 14 14 (100352)
I0512 20:47:14.187966  5089 net.cpp:166] Memory required for data: 352598016
I0512 20:47:14.188834  5089 layer_factory.hpp:77] Creating layer inception_4b/pool
I0512 20:47:14.189457  5089 net.cpp:107] Creating Layer inception_4b/pool
I0512 20:47:14.190160  5089 net.cpp:455] inception_4b/pool <- inception_4a/output_inception_4a/output_0_split_3
I0512 20:47:14.190799  5089 net.cpp:412] inception_4b/pool -> inception_4b/pool
I0512 20:47:14.191267  5089 net.cpp:151] Setting up inception_4b/pool
I0512 20:47:14.191644  5089 net.cpp:158] Top shape: 8 512 14 14 (802816)
I0512 20:47:14.192512  5089 net.cpp:166] Memory required for data: 355809280
I0512 20:47:14.192869  5089 layer_factory.hpp:77] Creating layer inception_4b/pool_proj
I0512 20:47:14.193141  5089 net.cpp:107] Creating Layer inception_4b/pool_proj
I0512 20:47:14.193652  5089 net.cpp:455] inception_4b/pool_proj <- inception_4b/pool
I0512 20:47:14.193966  5089 net.cpp:412] inception_4b/pool_proj -> inception_4b/pool_proj
I0512 20:47:14.194545  5089 net.cpp:151] Setting up inception_4b/pool_proj
I0512 20:47:14.194996  5089 net.cpp:158] Top shape: 8 64 14 14 (100352)
I0512 20:47:14.195561  5089 net.cpp:166] Memory required for data: 356210688
I0512 20:47:14.196091  5089 layer_factory.hpp:77] Creating layer inception_4b/relu_pool_proj
I0512 20:47:14.196523  5089 net.cpp:107] Creating Layer inception_4b/relu_pool_proj
I0512 20:47:14.196858  5089 net.cpp:455] inception_4b/relu_pool_proj <- inception_4b/pool_proj
I0512 20:47:14.197124  5089 net.cpp:398] inception_4b/relu_pool_proj -> inception_4b/pool_proj (in-place)
I0512 20:47:14.197439  5089 net.cpp:151] Setting up inception_4b/relu_pool_proj
I0512 20:47:14.198190  5089 net.cpp:158] Top shape: 8 64 14 14 (100352)
I0512 20:47:14.198494  5089 net.cpp:166] Memory required for data: 356612096
I0512 20:47:14.199050  5089 layer_factory.hpp:77] Creating layer inception_4b/output
I0512 20:47:14.199311  5089 net.cpp:107] Creating Layer inception_4b/output
I0512 20:47:14.200094  5089 net.cpp:455] inception_4b/output <- inception_4b/1x1
I0512 20:47:14.200682  5089 net.cpp:455] inception_4b/output <- inception_4b/3x3
I0512 20:47:14.201244  5089 net.cpp:455] inception_4b/output <- inception_4b/5x5
I0512 20:47:14.201604  5089 net.cpp:455] inception_4b/output <- inception_4b/pool_proj
I0512 20:47:14.201881  5089 net.cpp:412] inception_4b/output -> inception_4b/output
I0512 20:47:14.202380  5089 net.cpp:151] Setting up inception_4b/output
I0512 20:47:14.202811  5089 net.cpp:158] Top shape: 8 512 14 14 (802816)
I0512 20:47:14.203063  5089 net.cpp:166] Memory required for data: 359823360
I0512 20:47:14.203452  5089 layer_factory.hpp:77] Creating layer inception_4b/output_inception_4b/output_0_split
I0512 20:47:14.203810  5089 net.cpp:107] Creating Layer inception_4b/output_inception_4b/output_0_split
I0512 20:47:14.204118  5089 net.cpp:455] inception_4b/output_inception_4b/output_0_split <- inception_4b/output
I0512 20:47:14.204608  5089 net.cpp:412] inception_4b/output_inception_4b/output_0_split -> inception_4b/output_inception_4b/output_0_split_0
I0512 20:47:14.205190  5089 net.cpp:412] inception_4b/output_inception_4b/output_0_split -> inception_4b/output_inception_4b/output_0_split_1
I0512 20:47:14.205610  5089 net.cpp:412] inception_4b/output_inception_4b/output_0_split -> inception_4b/output_inception_4b/output_0_split_2
I0512 20:47:14.206089  5089 net.cpp:412] inception_4b/output_inception_4b/output_0_split -> inception_4b/output_inception_4b/output_0_split_3
I0512 20:47:14.206459  5089 net.cpp:151] Setting up inception_4b/output_inception_4b/output_0_split
I0512 20:47:14.206928  5089 net.cpp:158] Top shape: 8 512 14 14 (802816)
I0512 20:47:14.207182  5089 net.cpp:158] Top shape: 8 512 14 14 (802816)
I0512 20:47:14.207579  5089 net.cpp:158] Top shape: 8 512 14 14 (802816)
I0512 20:47:14.213101  5089 net.cpp:158] Top shape: 8 512 14 14 (802816)
I0512 20:47:14.213574  5089 net.cpp:166] Memory required for data: 372668416
I0512 20:47:14.214017  5089 layer_factory.hpp:77] Creating layer inception_4c/1x1
I0512 20:47:14.214493  5089 net.cpp:107] Creating Layer inception_4c/1x1
I0512 20:47:14.214920  5089 net.cpp:455] inception_4c/1x1 <- inception_4b/output_inception_4b/output_0_split_0
I0512 20:47:14.215530  5089 net.cpp:412] inception_4c/1x1 -> inception_4c/1x1
I0512 20:47:14.216565  5089 net.cpp:151] Setting up inception_4c/1x1
I0512 20:47:14.217002  5089 net.cpp:158] Top shape: 8 128 14 14 (200704)
I0512 20:47:14.217664  5089 net.cpp:166] Memory required for data: 373471232
I0512 20:47:14.218061  5089 layer_factory.hpp:77] Creating layer inception_4c/relu_1x1
I0512 20:47:14.218367  5089 net.cpp:107] Creating Layer inception_4c/relu_1x1
I0512 20:47:14.218629  5089 net.cpp:455] inception_4c/relu_1x1 <- inception_4c/1x1
I0512 20:47:14.218941  5089 net.cpp:398] inception_4c/relu_1x1 -> inception_4c/1x1 (in-place)
I0512 20:47:14.219259  5089 net.cpp:151] Setting up inception_4c/relu_1x1
I0512 20:47:14.219794  5089 net.cpp:158] Top shape: 8 128 14 14 (200704)
I0512 20:47:14.220443  5089 net.cpp:166] Memory required for data: 374274048
I0512 20:47:14.221382  5089 layer_factory.hpp:77] Creating layer inception_4c/3x3_reduce
I0512 20:47:14.221706  5089 net.cpp:107] Creating Layer inception_4c/3x3_reduce
I0512 20:47:14.222056  5089 net.cpp:455] inception_4c/3x3_reduce <- inception_4b/output_inception_4b/output_0_split_1
I0512 20:47:14.222427  5089 net.cpp:412] inception_4c/3x3_reduce -> inception_4c/3x3_reduce
I0512 20:47:14.223676  5089 net.cpp:151] Setting up inception_4c/3x3_reduce
I0512 20:47:14.224129  5089 net.cpp:158] Top shape: 8 128 14 14 (200704)
I0512 20:47:14.224869  5089 net.cpp:166] Memory required for data: 375076864
I0512 20:47:14.225169  5089 layer_factory.hpp:77] Creating layer inception_4c/relu_3x3_reduce
I0512 20:47:14.225455  5089 net.cpp:107] Creating Layer inception_4c/relu_3x3_reduce
I0512 20:47:14.225947  5089 net.cpp:455] inception_4c/relu_3x3_reduce <- inception_4c/3x3_reduce
I0512 20:47:14.226200  5089 net.cpp:398] inception_4c/relu_3x3_reduce -> inception_4c/3x3_reduce (in-place)
I0512 20:47:14.226493  5089 net.cpp:151] Setting up inception_4c/relu_3x3_reduce
I0512 20:47:14.227037  5089 net.cpp:158] Top shape: 8 128 14 14 (200704)
I0512 20:47:14.227303  5089 net.cpp:166] Memory required for data: 375879680
I0512 20:47:14.227691  5089 layer_factory.hpp:77] Creating layer inception_4c/3x3
I0512 20:47:14.228179  5089 net.cpp:107] Creating Layer inception_4c/3x3
I0512 20:47:14.228562  5089 net.cpp:455] inception_4c/3x3 <- inception_4c/3x3_reduce
I0512 20:47:14.228947  5089 net.cpp:412] inception_4c/3x3 -> inception_4c/3x3
I0512 20:47:14.231386  5089 net.cpp:151] Setting up inception_4c/3x3
I0512 20:47:14.231806  5089 net.cpp:158] Top shape: 8 256 14 14 (401408)
I0512 20:47:14.232234  5089 net.cpp:166] Memory required for data: 377485312
I0512 20:47:14.232583  5089 layer_factory.hpp:77] Creating layer inception_4c/relu_3x3
I0512 20:47:14.232837  5089 net.cpp:107] Creating Layer inception_4c/relu_3x3
I0512 20:47:14.233075  5089 net.cpp:455] inception_4c/relu_3x3 <- inception_4c/3x3
I0512 20:47:14.233261  5089 net.cpp:398] inception_4c/relu_3x3 -> inception_4c/3x3 (in-place)
I0512 20:47:14.233518  5089 net.cpp:151] Setting up inception_4c/relu_3x3
I0512 20:47:14.233891  5089 net.cpp:158] Top shape: 8 256 14 14 (401408)
I0512 20:47:14.234158  5089 net.cpp:166] Memory required for data: 379090944
I0512 20:47:14.234472  5089 layer_factory.hpp:77] Creating layer inception_4c/5x5_reduce
I0512 20:47:14.235003  5089 net.cpp:107] Creating Layer inception_4c/5x5_reduce
I0512 20:47:14.235327  5089 net.cpp:455] inception_4c/5x5_reduce <- inception_4b/output_inception_4b/output_0_split_2
I0512 20:47:14.235641  5089 net.cpp:412] inception_4c/5x5_reduce -> inception_4c/5x5_reduce
I0512 20:47:14.244303  5089 net.cpp:151] Setting up inception_4c/5x5_reduce
I0512 20:47:14.245087  5089 net.cpp:158] Top shape: 8 24 14 14 (37632)
I0512 20:47:14.245522  5089 net.cpp:166] Memory required for data: 379241472
I0512 20:47:14.245852  5089 layer_factory.hpp:77] Creating layer inception_4c/relu_5x5_reduce
I0512 20:47:14.246129  5089 net.cpp:107] Creating Layer inception_4c/relu_5x5_reduce
I0512 20:47:14.246546  5089 net.cpp:455] inception_4c/relu_5x5_reduce <- inception_4c/5x5_reduce
I0512 20:47:14.247119  5089 net.cpp:398] inception_4c/relu_5x5_reduce -> inception_4c/5x5_reduce (in-place)
I0512 20:47:14.247452  5089 net.cpp:151] Setting up inception_4c/relu_5x5_reduce
I0512 20:47:14.248100  5089 net.cpp:158] Top shape: 8 24 14 14 (37632)
I0512 20:47:14.248711  5089 net.cpp:166] Memory required for data: 379392000
I0512 20:47:14.249158  5089 layer_factory.hpp:77] Creating layer inception_4c/5x5
I0512 20:47:14.249696  5089 net.cpp:107] Creating Layer inception_4c/5x5
I0512 20:47:14.250075  5089 net.cpp:455] inception_4c/5x5 <- inception_4c/5x5_reduce
I0512 20:47:14.250620  5089 net.cpp:412] inception_4c/5x5 -> inception_4c/5x5
I0512 20:47:14.251230  5089 net.cpp:151] Setting up inception_4c/5x5
I0512 20:47:14.251900  5089 net.cpp:158] Top shape: 8 64 14 14 (100352)
I0512 20:47:14.252338  5089 net.cpp:166] Memory required for data: 379793408
I0512 20:47:14.252826  5089 layer_factory.hpp:77] Creating layer inception_4c/relu_5x5
I0512 20:47:14.253512  5089 net.cpp:107] Creating Layer inception_4c/relu_5x5
I0512 20:47:14.253974  5089 net.cpp:455] inception_4c/relu_5x5 <- inception_4c/5x5
I0512 20:47:14.254528  5089 net.cpp:398] inception_4c/relu_5x5 -> inception_4c/5x5 (in-place)
I0512 20:47:14.255146  5089 net.cpp:151] Setting up inception_4c/relu_5x5
I0512 20:47:14.255483  5089 net.cpp:158] Top shape: 8 64 14 14 (100352)
I0512 20:47:14.256265  5089 net.cpp:166] Memory required for data: 380194816
I0512 20:47:14.256705  5089 layer_factory.hpp:77] Creating layer inception_4c/pool
I0512 20:47:14.257479  5089 net.cpp:107] Creating Layer inception_4c/pool
I0512 20:47:14.257851  5089 net.cpp:455] inception_4c/pool <- inception_4b/output_inception_4b/output_0_split_3
I0512 20:47:14.258415  5089 net.cpp:412] inception_4c/pool -> inception_4c/pool
I0512 20:47:14.258695  5089 net.cpp:151] Setting up inception_4c/pool
I0512 20:47:14.259059  5089 net.cpp:158] Top shape: 8 512 14 14 (802816)
I0512 20:47:14.259357  5089 net.cpp:166] Memory required for data: 383406080
I0512 20:47:14.259853  5089 layer_factory.hpp:77] Creating layer inception_4c/pool_proj
I0512 20:47:14.260165  5089 net.cpp:107] Creating Layer inception_4c/pool_proj
I0512 20:47:14.260522  5089 net.cpp:455] inception_4c/pool_proj <- inception_4c/pool
I0512 20:47:14.260987  5089 net.cpp:412] inception_4c/pool_proj -> inception_4c/pool_proj
I0512 20:47:14.261778  5089 net.cpp:151] Setting up inception_4c/pool_proj
I0512 20:47:14.262406  5089 net.cpp:158] Top shape: 8 64 14 14 (100352)
I0512 20:47:14.262843  5089 net.cpp:166] Memory required for data: 383807488
I0512 20:47:14.263147  5089 layer_factory.hpp:77] Creating layer inception_4c/relu_pool_proj
I0512 20:47:14.263706  5089 net.cpp:107] Creating Layer inception_4c/relu_pool_proj
I0512 20:47:14.264019  5089 net.cpp:455] inception_4c/relu_pool_proj <- inception_4c/pool_proj
I0512 20:47:14.264540  5089 net.cpp:398] inception_4c/relu_pool_proj -> inception_4c/pool_proj (in-place)
I0512 20:47:14.264837  5089 net.cpp:151] Setting up inception_4c/relu_pool_proj
I0512 20:47:14.265100  5089 net.cpp:158] Top shape: 8 64 14 14 (100352)
I0512 20:47:14.265491  5089 net.cpp:166] Memory required for data: 384208896
I0512 20:47:14.265710  5089 layer_factory.hpp:77] Creating layer inception_4c/output
I0512 20:47:14.265971  5089 net.cpp:107] Creating Layer inception_4c/output
I0512 20:47:14.266378  5089 net.cpp:455] inception_4c/output <- inception_4c/1x1
I0512 20:47:14.266767  5089 net.cpp:455] inception_4c/output <- inception_4c/3x3
I0512 20:47:14.281565  5089 net.cpp:455] inception_4c/output <- inception_4c/5x5
I0512 20:47:14.282311  5089 net.cpp:455] inception_4c/output <- inception_4c/pool_proj
I0512 20:47:14.282786  5089 net.cpp:412] inception_4c/output -> inception_4c/output
I0512 20:47:14.283591  5089 net.cpp:151] Setting up inception_4c/output
I0512 20:47:14.284250  5089 net.cpp:158] Top shape: 8 512 14 14 (802816)
I0512 20:47:14.284821  5089 net.cpp:166] Memory required for data: 387420160
I0512 20:47:14.285516  5089 layer_factory.hpp:77] Creating layer inception_4c/output_inception_4c/output_0_split
I0512 20:47:14.286209  5089 net.cpp:107] Creating Layer inception_4c/output_inception_4c/output_0_split
I0512 20:47:14.286507  5089 net.cpp:455] inception_4c/output_inception_4c/output_0_split <- inception_4c/output
I0512 20:47:14.286814  5089 net.cpp:412] inception_4c/output_inception_4c/output_0_split -> inception_4c/output_inception_4c/output_0_split_0
I0512 20:47:14.287066  5089 net.cpp:412] inception_4c/output_inception_4c/output_0_split -> inception_4c/output_inception_4c/output_0_split_1
I0512 20:47:14.287338  5089 net.cpp:412] inception_4c/output_inception_4c/output_0_split -> inception_4c/output_inception_4c/output_0_split_2
I0512 20:47:14.287860  5089 net.cpp:412] inception_4c/output_inception_4c/output_0_split -> inception_4c/output_inception_4c/output_0_split_3
I0512 20:47:14.288429  5089 net.cpp:151] Setting up inception_4c/output_inception_4c/output_0_split
I0512 20:47:14.288910  5089 net.cpp:158] Top shape: 8 512 14 14 (802816)
I0512 20:47:14.290047  5089 net.cpp:158] Top shape: 8 512 14 14 (802816)
I0512 20:47:14.290704  5089 net.cpp:158] Top shape: 8 512 14 14 (802816)
I0512 20:47:14.291116  5089 net.cpp:158] Top shape: 8 512 14 14 (802816)
I0512 20:47:14.291419  5089 net.cpp:166] Memory required for data: 400265216
I0512 20:47:14.291734  5089 layer_factory.hpp:77] Creating layer inception_4d/1x1
I0512 20:47:14.292204  5089 net.cpp:107] Creating Layer inception_4d/1x1
I0512 20:47:14.292429  5089 net.cpp:455] inception_4d/1x1 <- inception_4c/output_inception_4c/output_0_split_0
I0512 20:47:14.292709  5089 net.cpp:412] inception_4d/1x1 -> inception_4d/1x1
I0512 20:47:14.293730  5089 net.cpp:151] Setting up inception_4d/1x1
I0512 20:47:14.294277  5089 net.cpp:158] Top shape: 8 112 14 14 (175616)
I0512 20:47:14.294869  5089 net.cpp:166] Memory required for data: 400967680
I0512 20:47:14.295155  5089 layer_factory.hpp:77] Creating layer inception_4d/relu_1x1
I0512 20:47:14.295383  5089 net.cpp:107] Creating Layer inception_4d/relu_1x1
I0512 20:47:14.295610  5089 net.cpp:455] inception_4d/relu_1x1 <- inception_4d/1x1
I0512 20:47:14.295979  5089 net.cpp:398] inception_4d/relu_1x1 -> inception_4d/1x1 (in-place)
I0512 20:47:14.296200  5089 net.cpp:151] Setting up inception_4d/relu_1x1
I0512 20:47:14.296422  5089 net.cpp:158] Top shape: 8 112 14 14 (175616)
I0512 20:47:14.296631  5089 net.cpp:166] Memory required for data: 401670144
I0512 20:47:14.296995  5089 layer_factory.hpp:77] Creating layer inception_4d/3x3_reduce
I0512 20:47:14.297423  5089 net.cpp:107] Creating Layer inception_4d/3x3_reduce
I0512 20:47:14.297737  5089 net.cpp:455] inception_4d/3x3_reduce <- inception_4c/output_inception_4c/output_0_split_1
I0512 20:47:14.298202  5089 net.cpp:412] inception_4d/3x3_reduce -> inception_4d/3x3_reduce
I0512 20:47:14.299309  5089 net.cpp:151] Setting up inception_4d/3x3_reduce
I0512 20:47:14.299623  5089 net.cpp:158] Top shape: 8 144 14 14 (225792)
I0512 20:47:14.300206  5089 net.cpp:166] Memory required for data: 402573312
I0512 20:47:14.300563  5089 layer_factory.hpp:77] Creating layer inception_4d/relu_3x3_reduce
I0512 20:47:14.301152  5089 net.cpp:107] Creating Layer inception_4d/relu_3x3_reduce
I0512 20:47:14.301900  5089 net.cpp:455] inception_4d/relu_3x3_reduce <- inception_4d/3x3_reduce
I0512 20:47:14.302336  5089 net.cpp:398] inception_4d/relu_3x3_reduce -> inception_4d/3x3_reduce (in-place)
I0512 20:47:14.302760  5089 net.cpp:151] Setting up inception_4d/relu_3x3_reduce
I0512 20:47:14.303184  5089 net.cpp:158] Top shape: 8 144 14 14 (225792)
I0512 20:47:14.303576  5089 net.cpp:166] Memory required for data: 403476480
I0512 20:47:14.303884  5089 layer_factory.hpp:77] Creating layer inception_4d/3x3
I0512 20:47:14.309336  5089 net.cpp:107] Creating Layer inception_4d/3x3
I0512 20:47:14.310127  5089 net.cpp:455] inception_4d/3x3 <- inception_4d/3x3_reduce
I0512 20:47:14.311134  5089 net.cpp:412] inception_4d/3x3 -> inception_4d/3x3
I0512 20:47:14.313968  5089 net.cpp:151] Setting up inception_4d/3x3
I0512 20:47:14.314574  5089 net.cpp:158] Top shape: 8 288 14 14 (451584)
I0512 20:47:14.315284  5089 net.cpp:166] Memory required for data: 405282816
I0512 20:47:14.315600  5089 layer_factory.hpp:77] Creating layer inception_4d/relu_3x3
I0512 20:47:14.316205  5089 net.cpp:107] Creating Layer inception_4d/relu_3x3
I0512 20:47:14.316721  5089 net.cpp:455] inception_4d/relu_3x3 <- inception_4d/3x3
I0512 20:47:14.317610  5089 net.cpp:398] inception_4d/relu_3x3 -> inception_4d/3x3 (in-place)
I0512 20:47:14.317867  5089 net.cpp:151] Setting up inception_4d/relu_3x3
I0512 20:47:14.318424  5089 net.cpp:158] Top shape: 8 288 14 14 (451584)
I0512 20:47:14.318720  5089 net.cpp:166] Memory required for data: 407089152
I0512 20:47:14.319278  5089 layer_factory.hpp:77] Creating layer inception_4d/5x5_reduce
I0512 20:47:14.319594  5089 net.cpp:107] Creating Layer inception_4d/5x5_reduce
I0512 20:47:14.320133  5089 net.cpp:455] inception_4d/5x5_reduce <- inception_4c/output_inception_4c/output_0_split_2
I0512 20:47:14.320399  5089 net.cpp:412] inception_4d/5x5_reduce -> inception_4d/5x5_reduce
I0512 20:47:14.320765  5089 net.cpp:151] Setting up inception_4d/5x5_reduce
I0512 20:47:14.320998  5089 net.cpp:158] Top shape: 8 32 14 14 (50176)
I0512 20:47:14.321645  5089 net.cpp:166] Memory required for data: 407289856
I0512 20:47:14.321983  5089 layer_factory.hpp:77] Creating layer inception_4d/relu_5x5_reduce
I0512 20:47:14.322402  5089 net.cpp:107] Creating Layer inception_4d/relu_5x5_reduce
I0512 20:47:14.322719  5089 net.cpp:455] inception_4d/relu_5x5_reduce <- inception_4d/5x5_reduce
I0512 20:47:14.323381  5089 net.cpp:398] inception_4d/relu_5x5_reduce -> inception_4d/5x5_reduce (in-place)
I0512 20:47:14.323971  5089 net.cpp:151] Setting up inception_4d/relu_5x5_reduce
I0512 20:47:14.324414  5089 net.cpp:158] Top shape: 8 32 14 14 (50176)
I0512 20:47:14.324697  5089 net.cpp:166] Memory required for data: 407490560
I0512 20:47:14.325114  5089 layer_factory.hpp:77] Creating layer inception_4d/5x5
I0512 20:47:14.325407  5089 net.cpp:107] Creating Layer inception_4d/5x5
I0512 20:47:14.325623  5089 net.cpp:455] inception_4d/5x5 <- inception_4d/5x5_reduce
I0512 20:47:14.326186  5089 net.cpp:412] inception_4d/5x5 -> inception_4d/5x5
I0512 20:47:14.326879  5089 net.cpp:151] Setting up inception_4d/5x5
I0512 20:47:14.327379  5089 net.cpp:158] Top shape: 8 64 14 14 (100352)
I0512 20:47:14.327687  5089 net.cpp:166] Memory required for data: 407891968
I0512 20:47:14.328121  5089 layer_factory.hpp:77] Creating layer inception_4d/relu_5x5
I0512 20:47:14.328354  5089 net.cpp:107] Creating Layer inception_4d/relu_5x5
I0512 20:47:14.328609  5089 net.cpp:455] inception_4d/relu_5x5 <- inception_4d/5x5
I0512 20:47:14.329207  5089 net.cpp:398] inception_4d/relu_5x5 -> inception_4d/5x5 (in-place)
I0512 20:47:14.329696  5089 net.cpp:151] Setting up inception_4d/relu_5x5
I0512 20:47:14.330077  5089 net.cpp:158] Top shape: 8 64 14 14 (100352)
I0512 20:47:14.330549  5089 net.cpp:166] Memory required for data: 408293376
I0512 20:47:14.330902  5089 layer_factory.hpp:77] Creating layer inception_4d/pool
I0512 20:47:14.331236  5089 net.cpp:107] Creating Layer inception_4d/pool
I0512 20:47:14.332347  5089 net.cpp:455] inception_4d/pool <- inception_4c/output_inception_4c/output_0_split_3
I0512 20:47:14.332715  5089 net.cpp:412] inception_4d/pool -> inception_4d/pool
I0512 20:47:14.333212  5089 net.cpp:151] Setting up inception_4d/pool
I0512 20:47:14.333643  5089 net.cpp:158] Top shape: 8 512 14 14 (802816)
I0512 20:47:14.334105  5089 net.cpp:166] Memory required for data: 411504640
I0512 20:47:14.334542  5089 layer_factory.hpp:77] Creating layer inception_4d/pool_proj
I0512 20:47:14.335301  5089 net.cpp:107] Creating Layer inception_4d/pool_proj
I0512 20:47:14.335630  5089 net.cpp:455] inception_4d/pool_proj <- inception_4d/pool
I0512 20:47:14.336019  5089 net.cpp:412] inception_4d/pool_proj -> inception_4d/pool_proj
I0512 20:47:14.336727  5089 net.cpp:151] Setting up inception_4d/pool_proj
I0512 20:47:14.336980  5089 net.cpp:158] Top shape: 8 64 14 14 (100352)
I0512 20:47:14.337390  5089 net.cpp:166] Memory required for data: 411906048
I0512 20:47:14.337698  5089 layer_factory.hpp:77] Creating layer inception_4d/relu_pool_proj
I0512 20:47:14.338380  5089 net.cpp:107] Creating Layer inception_4d/relu_pool_proj
I0512 20:47:14.338904  5089 net.cpp:455] inception_4d/relu_pool_proj <- inception_4d/pool_proj
I0512 20:47:14.339406  5089 net.cpp:398] inception_4d/relu_pool_proj -> inception_4d/pool_proj (in-place)
I0512 20:47:14.339853  5089 net.cpp:151] Setting up inception_4d/relu_pool_proj
I0512 20:47:14.340241  5089 net.cpp:158] Top shape: 8 64 14 14 (100352)
I0512 20:47:14.340715  5089 net.cpp:166] Memory required for data: 412307456
I0512 20:47:14.340972  5089 layer_factory.hpp:77] Creating layer inception_4d/output
I0512 20:47:14.341260  5089 net.cpp:107] Creating Layer inception_4d/output
I0512 20:47:14.341626  5089 net.cpp:455] inception_4d/output <- inception_4d/1x1
I0512 20:47:14.341847  5089 net.cpp:455] inception_4d/output <- inception_4d/3x3
I0512 20:47:14.342111  5089 net.cpp:455] inception_4d/output <- inception_4d/5x5
I0512 20:47:14.342625  5089 net.cpp:455] inception_4d/output <- inception_4d/pool_proj
I0512 20:47:14.343124  5089 net.cpp:412] inception_4d/output -> inception_4d/output
I0512 20:47:14.343889  5089 net.cpp:151] Setting up inception_4d/output
I0512 20:47:14.344151  5089 net.cpp:158] Top shape: 8 528 14 14 (827904)
I0512 20:47:14.344715  5089 net.cpp:166] Memory required for data: 415619072
I0512 20:47:14.345010  5089 layer_factory.hpp:77] Creating layer inception_4d/output_inception_4d/output_0_split
I0512 20:47:14.345647  5089 net.cpp:107] Creating Layer inception_4d/output_inception_4d/output_0_split
I0512 20:47:14.346264  5089 net.cpp:455] inception_4d/output_inception_4d/output_0_split <- inception_4d/output
I0512 20:47:14.346560  5089 net.cpp:412] inception_4d/output_inception_4d/output_0_split -> inception_4d/output_inception_4d/output_0_split_0
I0512 20:47:14.347071  5089 net.cpp:412] inception_4d/output_inception_4d/output_0_split -> inception_4d/output_inception_4d/output_0_split_1
I0512 20:47:14.347578  5089 net.cpp:412] inception_4d/output_inception_4d/output_0_split -> inception_4d/output_inception_4d/output_0_split_2
I0512 20:47:14.347947  5089 net.cpp:412] inception_4d/output_inception_4d/output_0_split -> inception_4d/output_inception_4d/output_0_split_3
I0512 20:47:14.348414  5089 net.cpp:151] Setting up inception_4d/output_inception_4d/output_0_split
I0512 20:47:14.348785  5089 net.cpp:158] Top shape: 8 528 14 14 (827904)
I0512 20:47:14.349097  5089 net.cpp:158] Top shape: 8 528 14 14 (827904)
I0512 20:47:14.349350  5089 net.cpp:158] Top shape: 8 528 14 14 (827904)
I0512 20:47:14.349645  5089 net.cpp:158] Top shape: 8 528 14 14 (827904)
I0512 20:47:14.350126  5089 net.cpp:166] Memory required for data: 428865536
I0512 20:47:14.350518  5089 layer_factory.hpp:77] Creating layer inception_4e/1x1
I0512 20:47:14.350917  5089 net.cpp:107] Creating Layer inception_4e/1x1
I0512 20:47:14.351496  5089 net.cpp:455] inception_4e/1x1 <- inception_4d/output_inception_4d/output_0_split_0
I0512 20:47:14.352154  5089 net.cpp:412] inception_4e/1x1 -> inception_4e/1x1
I0512 20:47:14.353463  5089 net.cpp:151] Setting up inception_4e/1x1
I0512 20:47:14.354034  5089 net.cpp:158] Top shape: 8 256 14 14 (401408)
I0512 20:47:14.354352  5089 net.cpp:166] Memory required for data: 430471168
I0512 20:47:14.354689  5089 layer_factory.hpp:77] Creating layer inception_4e/relu_1x1
I0512 20:47:14.356191  5089 net.cpp:107] Creating Layer inception_4e/relu_1x1
I0512 20:47:14.356668  5089 net.cpp:455] inception_4e/relu_1x1 <- inception_4e/1x1
I0512 20:47:14.357183  5089 net.cpp:398] inception_4e/relu_1x1 -> inception_4e/1x1 (in-place)
I0512 20:47:14.357599  5089 net.cpp:151] Setting up inception_4e/relu_1x1
I0512 20:47:14.357899  5089 net.cpp:158] Top shape: 8 256 14 14 (401408)
I0512 20:47:14.358171  5089 net.cpp:166] Memory required for data: 432076800
I0512 20:47:14.358463  5089 layer_factory.hpp:77] Creating layer inception_4e/3x3_reduce
I0512 20:47:14.358757  5089 net.cpp:107] Creating Layer inception_4e/3x3_reduce
I0512 20:47:14.359027  5089 net.cpp:455] inception_4e/3x3_reduce <- inception_4d/output_inception_4d/output_0_split_1
I0512 20:47:14.359338  5089 net.cpp:412] inception_4e/3x3_reduce -> inception_4e/3x3_reduce
I0512 20:47:14.360128  5089 net.cpp:151] Setting up inception_4e/3x3_reduce
I0512 20:47:14.360383  5089 net.cpp:158] Top shape: 8 160 14 14 (250880)
I0512 20:47:14.360652  5089 net.cpp:166] Memory required for data: 433080320
I0512 20:47:14.360870  5089 layer_factory.hpp:77] Creating layer inception_4e/relu_3x3_reduce
I0512 20:47:14.361101  5089 net.cpp:107] Creating Layer inception_4e/relu_3x3_reduce
I0512 20:47:14.361289  5089 net.cpp:455] inception_4e/relu_3x3_reduce <- inception_4e/3x3_reduce
I0512 20:47:14.361496  5089 net.cpp:398] inception_4e/relu_3x3_reduce -> inception_4e/3x3_reduce (in-place)
I0512 20:47:14.361682  5089 net.cpp:151] Setting up inception_4e/relu_3x3_reduce
I0512 20:47:14.361937  5089 net.cpp:158] Top shape: 8 160 14 14 (250880)
I0512 20:47:14.362128  5089 net.cpp:166] Memory required for data: 434083840
I0512 20:47:14.362308  5089 layer_factory.hpp:77] Creating layer inception_4e/3x3
I0512 20:47:14.362520  5089 net.cpp:107] Creating Layer inception_4e/3x3
I0512 20:47:14.362700  5089 net.cpp:455] inception_4e/3x3 <- inception_4e/3x3_reduce
I0512 20:47:14.362893  5089 net.cpp:412] inception_4e/3x3 -> inception_4e/3x3
I0512 20:47:14.365455  5089 net.cpp:151] Setting up inception_4e/3x3
I0512 20:47:14.365703  5089 net.cpp:158] Top shape: 8 320 14 14 (501760)
I0512 20:47:14.366005  5089 net.cpp:166] Memory required for data: 436090880
I0512 20:47:14.366255  5089 layer_factory.hpp:77] Creating layer inception_4e/relu_3x3
I0512 20:47:14.366523  5089 net.cpp:107] Creating Layer inception_4e/relu_3x3
I0512 20:47:14.366714  5089 net.cpp:455] inception_4e/relu_3x3 <- inception_4e/3x3
I0512 20:47:14.366937  5089 net.cpp:398] inception_4e/relu_3x3 -> inception_4e/3x3 (in-place)
I0512 20:47:14.367144  5089 net.cpp:151] Setting up inception_4e/relu_3x3
I0512 20:47:14.367331  5089 net.cpp:158] Top shape: 8 320 14 14 (501760)
I0512 20:47:14.367519  5089 net.cpp:166] Memory required for data: 438097920
I0512 20:47:14.367703  5089 layer_factory.hpp:77] Creating layer inception_4e/5x5_reduce
I0512 20:47:14.367910  5089 net.cpp:107] Creating Layer inception_4e/5x5_reduce
I0512 20:47:14.368118  5089 net.cpp:455] inception_4e/5x5_reduce <- inception_4d/output_inception_4d/output_0_split_2
I0512 20:47:14.368336  5089 net.cpp:412] inception_4e/5x5_reduce -> inception_4e/5x5_reduce
I0512 20:47:14.368741  5089 net.cpp:151] Setting up inception_4e/5x5_reduce
I0512 20:47:14.368993  5089 net.cpp:158] Top shape: 8 32 14 14 (50176)
I0512 20:47:14.369216  5089 net.cpp:166] Memory required for data: 438298624
I0512 20:47:14.369410  5089 layer_factory.hpp:77] Creating layer inception_4e/relu_5x5_reduce
I0512 20:47:14.369611  5089 net.cpp:107] Creating Layer inception_4e/relu_5x5_reduce
I0512 20:47:14.369834  5089 net.cpp:455] inception_4e/relu_5x5_reduce <- inception_4e/5x5_reduce
I0512 20:47:14.370030  5089 net.cpp:398] inception_4e/relu_5x5_reduce -> inception_4e/5x5_reduce (in-place)
I0512 20:47:14.370272  5089 net.cpp:151] Setting up inception_4e/relu_5x5_reduce
I0512 20:47:14.370501  5089 net.cpp:158] Top shape: 8 32 14 14 (50176)
I0512 20:47:14.370743  5089 net.cpp:166] Memory required for data: 438499328
I0512 20:47:14.370946  5089 layer_factory.hpp:77] Creating layer inception_4e/5x5
I0512 20:47:14.371179  5089 net.cpp:107] Creating Layer inception_4e/5x5
I0512 20:47:14.371371  5089 net.cpp:455] inception_4e/5x5 <- inception_4e/5x5_reduce
I0512 20:47:14.371562  5089 net.cpp:412] inception_4e/5x5 -> inception_4e/5x5
I0512 20:47:14.372339  5089 net.cpp:151] Setting up inception_4e/5x5
I0512 20:47:14.372537  5089 net.cpp:158] Top shape: 8 128 14 14 (200704)
I0512 20:47:14.372745  5089 net.cpp:166] Memory required for data: 439302144
I0512 20:47:14.372947  5089 layer_factory.hpp:77] Creating layer inception_4e/relu_5x5
I0512 20:47:14.373152  5089 net.cpp:107] Creating Layer inception_4e/relu_5x5
I0512 20:47:14.373353  5089 net.cpp:455] inception_4e/relu_5x5 <- inception_4e/5x5
I0512 20:47:14.373544  5089 net.cpp:398] inception_4e/relu_5x5 -> inception_4e/5x5 (in-place)
I0512 20:47:14.373766  5089 net.cpp:151] Setting up inception_4e/relu_5x5
I0512 20:47:14.373980  5089 net.cpp:158] Top shape: 8 128 14 14 (200704)
I0512 20:47:14.374212  5089 net.cpp:166] Memory required for data: 440104960
I0512 20:47:14.374898  5089 layer_factory.hpp:77] Creating layer inception_4e/pool
I0512 20:47:14.375350  5089 net.cpp:107] Creating Layer inception_4e/pool
I0512 20:47:14.375690  5089 net.cpp:455] inception_4e/pool <- inception_4d/output_inception_4d/output_0_split_3
I0512 20:47:14.375949  5089 net.cpp:412] inception_4e/pool -> inception_4e/pool
I0512 20:47:14.376178  5089 net.cpp:151] Setting up inception_4e/pool
I0512 20:47:14.376376  5089 net.cpp:158] Top shape: 8 528 14 14 (827904)
I0512 20:47:14.376574  5089 net.cpp:166] Memory required for data: 443416576
I0512 20:47:14.376756  5089 layer_factory.hpp:77] Creating layer inception_4e/pool_proj
I0512 20:47:14.376969  5089 net.cpp:107] Creating Layer inception_4e/pool_proj
I0512 20:47:14.377161  5089 net.cpp:455] inception_4e/pool_proj <- inception_4e/pool
I0512 20:47:14.377359  5089 net.cpp:412] inception_4e/pool_proj -> inception_4e/pool_proj
I0512 20:47:14.377964  5089 net.cpp:151] Setting up inception_4e/pool_proj
I0512 20:47:14.378165  5089 net.cpp:158] Top shape: 8 128 14 14 (200704)
I0512 20:47:14.378360  5089 net.cpp:166] Memory required for data: 444219392
I0512 20:47:14.378561  5089 layer_factory.hpp:77] Creating layer inception_4e/relu_pool_proj
I0512 20:47:14.378758  5089 net.cpp:107] Creating Layer inception_4e/relu_pool_proj
I0512 20:47:14.378974  5089 net.cpp:455] inception_4e/relu_pool_proj <- inception_4e/pool_proj
I0512 20:47:14.379173  5089 net.cpp:398] inception_4e/relu_pool_proj -> inception_4e/pool_proj (in-place)
I0512 20:47:14.379359  5089 net.cpp:151] Setting up inception_4e/relu_pool_proj
I0512 20:47:14.379547  5089 net.cpp:158] Top shape: 8 128 14 14 (200704)
I0512 20:47:14.379762  5089 net.cpp:166] Memory required for data: 445022208
I0512 20:47:14.380079  5089 layer_factory.hpp:77] Creating layer inception_4e/output
I0512 20:47:14.380383  5089 net.cpp:107] Creating Layer inception_4e/output
I0512 20:47:14.380637  5089 net.cpp:455] inception_4e/output <- inception_4e/1x1
I0512 20:47:14.380889  5089 net.cpp:455] inception_4e/output <- inception_4e/3x3
I0512 20:47:14.381152  5089 net.cpp:455] inception_4e/output <- inception_4e/5x5
I0512 20:47:14.381368  5089 net.cpp:455] inception_4e/output <- inception_4e/pool_proj
I0512 20:47:14.381590  5089 net.cpp:412] inception_4e/output -> inception_4e/output
I0512 20:47:14.381801  5089 net.cpp:151] Setting up inception_4e/output
I0512 20:47:14.382036  5089 net.cpp:158] Top shape: 8 832 14 14 (1304576)
I0512 20:47:14.382257  5089 net.cpp:166] Memory required for data: 450240512
I0512 20:47:14.382468  5089 layer_factory.hpp:77] Creating layer pool4/3x3_s2
I0512 20:47:14.382688  5089 net.cpp:107] Creating Layer pool4/3x3_s2
I0512 20:47:14.382895  5089 net.cpp:455] pool4/3x3_s2 <- inception_4e/output
I0512 20:47:14.383112  5089 net.cpp:412] pool4/3x3_s2 -> pool4/3x3_s2
I0512 20:47:14.383321  5089 net.cpp:151] Setting up pool4/3x3_s2
I0512 20:47:14.383548  5089 net.cpp:158] Top shape: 8 832 7 7 (326144)
I0512 20:47:14.383764  5089 net.cpp:166] Memory required for data: 451545088
I0512 20:47:14.383972  5089 layer_factory.hpp:77] Creating layer pool4/3x3_s2_pool4/3x3_s2_0_split
I0512 20:47:14.384153  5089 net.cpp:107] Creating Layer pool4/3x3_s2_pool4/3x3_s2_0_split
I0512 20:47:14.384331  5089 net.cpp:455] pool4/3x3_s2_pool4/3x3_s2_0_split <- pool4/3x3_s2
I0512 20:47:14.384510  5089 net.cpp:412] pool4/3x3_s2_pool4/3x3_s2_0_split -> pool4/3x3_s2_pool4/3x3_s2_0_split_0
I0512 20:47:14.384726  5089 net.cpp:412] pool4/3x3_s2_pool4/3x3_s2_0_split -> pool4/3x3_s2_pool4/3x3_s2_0_split_1
I0512 20:47:14.384924  5089 net.cpp:412] pool4/3x3_s2_pool4/3x3_s2_0_split -> pool4/3x3_s2_pool4/3x3_s2_0_split_2
I0512 20:47:14.385128  5089 net.cpp:412] pool4/3x3_s2_pool4/3x3_s2_0_split -> pool4/3x3_s2_pool4/3x3_s2_0_split_3
I0512 20:47:14.385354  5089 net.cpp:151] Setting up pool4/3x3_s2_pool4/3x3_s2_0_split
I0512 20:47:14.385541  5089 net.cpp:158] Top shape: 8 832 7 7 (326144)
I0512 20:47:14.385737  5089 net.cpp:158] Top shape: 8 832 7 7 (326144)
I0512 20:47:14.385913  5089 net.cpp:158] Top shape: 8 832 7 7 (326144)
I0512 20:47:14.386096  5089 net.cpp:158] Top shape: 8 832 7 7 (326144)
I0512 20:47:14.386291  5089 net.cpp:166] Memory required for data: 456763392
I0512 20:47:14.386482  5089 layer_factory.hpp:77] Creating layer inception_5a/1x1
I0512 20:47:14.386672  5089 net.cpp:107] Creating Layer inception_5a/1x1
I0512 20:47:14.386847  5089 net.cpp:455] inception_5a/1x1 <- pool4/3x3_s2_pool4/3x3_s2_0_split_0
I0512 20:47:14.387053  5089 net.cpp:412] inception_5a/1x1 -> inception_5a/1x1
I0512 20:47:14.388382  5089 net.cpp:151] Setting up inception_5a/1x1
I0512 20:47:14.388586  5089 net.cpp:158] Top shape: 8 256 7 7 (100352)
I0512 20:47:14.388767  5089 net.cpp:166] Memory required for data: 457164800
I0512 20:47:14.388958  5089 layer_factory.hpp:77] Creating layer inception_5a/relu_1x1
I0512 20:47:14.389153  5089 net.cpp:107] Creating Layer inception_5a/relu_1x1
I0512 20:47:14.389350  5089 net.cpp:455] inception_5a/relu_1x1 <- inception_5a/1x1
I0512 20:47:14.389564  5089 net.cpp:398] inception_5a/relu_1x1 -> inception_5a/1x1 (in-place)
I0512 20:47:14.389762  5089 net.cpp:151] Setting up inception_5a/relu_1x1
I0512 20:47:14.389961  5089 net.cpp:158] Top shape: 8 256 7 7 (100352)
I0512 20:47:14.390159  5089 net.cpp:166] Memory required for data: 457566208
I0512 20:47:14.390339  5089 layer_factory.hpp:77] Creating layer inception_5a/3x3_reduce
I0512 20:47:14.390548  5089 net.cpp:107] Creating Layer inception_5a/3x3_reduce
I0512 20:47:14.390767  5089 net.cpp:455] inception_5a/3x3_reduce <- pool4/3x3_s2_pool4/3x3_s2_0_split_1
I0512 20:47:14.391198  5089 net.cpp:412] inception_5a/3x3_reduce -> inception_5a/3x3_reduce
I0512 20:47:14.392144  5089 net.cpp:151] Setting up inception_5a/3x3_reduce
I0512 20:47:14.392336  5089 net.cpp:158] Top shape: 8 160 7 7 (62720)
I0512 20:47:14.392544  5089 net.cpp:166] Memory required for data: 457817088
I0512 20:47:14.392750  5089 layer_factory.hpp:77] Creating layer inception_5a/relu_3x3_reduce
I0512 20:47:14.392943  5089 net.cpp:107] Creating Layer inception_5a/relu_3x3_reduce
I0512 20:47:14.393147  5089 net.cpp:455] inception_5a/relu_3x3_reduce <- inception_5a/3x3_reduce
I0512 20:47:14.393335  5089 net.cpp:398] inception_5a/relu_3x3_reduce -> inception_5a/3x3_reduce (in-place)
I0512 20:47:14.393549  5089 net.cpp:151] Setting up inception_5a/relu_3x3_reduce
I0512 20:47:14.393764  5089 net.cpp:158] Top shape: 8 160 7 7 (62720)
I0512 20:47:14.393968  5089 net.cpp:166] Memory required for data: 458067968
I0512 20:47:14.394160  5089 layer_factory.hpp:77] Creating layer inception_5a/3x3
I0512 20:47:14.394384  5089 net.cpp:107] Creating Layer inception_5a/3x3
I0512 20:47:14.394577  5089 net.cpp:455] inception_5a/3x3 <- inception_5a/3x3_reduce
I0512 20:47:14.394783  5089 net.cpp:412] inception_5a/3x3 -> inception_5a/3x3
I0512 20:47:14.397369  5089 net.cpp:151] Setting up inception_5a/3x3
I0512 20:47:14.397603  5089 net.cpp:158] Top shape: 8 320 7 7 (125440)
I0512 20:47:14.397886  5089 net.cpp:166] Memory required for data: 458569728
I0512 20:47:14.398131  5089 layer_factory.hpp:77] Creating layer inception_5a/relu_3x3
I0512 20:47:14.398339  5089 net.cpp:107] Creating Layer inception_5a/relu_3x3
I0512 20:47:14.398563  5089 net.cpp:455] inception_5a/relu_3x3 <- inception_5a/3x3
I0512 20:47:14.398780  5089 net.cpp:398] inception_5a/relu_3x3 -> inception_5a/3x3 (in-place)
I0512 20:47:14.399035  5089 net.cpp:151] Setting up inception_5a/relu_3x3
I0512 20:47:14.399241  5089 net.cpp:158] Top shape: 8 320 7 7 (125440)
I0512 20:47:14.399441  5089 net.cpp:166] Memory required for data: 459071488
I0512 20:47:14.399628  5089 layer_factory.hpp:77] Creating layer inception_5a/5x5_reduce
I0512 20:47:14.399855  5089 net.cpp:107] Creating Layer inception_5a/5x5_reduce
I0512 20:47:14.400029  5089 net.cpp:455] inception_5a/5x5_reduce <- pool4/3x3_s2_pool4/3x3_s2_0_split_2
I0512 20:47:14.400249  5089 net.cpp:412] inception_5a/5x5_reduce -> inception_5a/5x5_reduce
I0512 20:47:14.400619  5089 net.cpp:151] Setting up inception_5a/5x5_reduce
I0512 20:47:14.400821  5089 net.cpp:158] Top shape: 8 32 7 7 (12544)
I0512 20:47:14.401005  5089 net.cpp:166] Memory required for data: 459121664
I0512 20:47:14.401222  5089 layer_factory.hpp:77] Creating layer inception_5a/relu_5x5_reduce
I0512 20:47:14.401433  5089 net.cpp:107] Creating Layer inception_5a/relu_5x5_reduce
I0512 20:47:14.401618  5089 net.cpp:455] inception_5a/relu_5x5_reduce <- inception_5a/5x5_reduce
I0512 20:47:14.401814  5089 net.cpp:398] inception_5a/relu_5x5_reduce -> inception_5a/5x5_reduce (in-place)
I0512 20:47:14.402017  5089 net.cpp:151] Setting up inception_5a/relu_5x5_reduce
I0512 20:47:14.402227  5089 net.cpp:158] Top shape: 8 32 7 7 (12544)
I0512 20:47:14.402510  5089 net.cpp:166] Memory required for data: 459171840
I0512 20:47:14.402720  5089 layer_factory.hpp:77] Creating layer inception_5a/5x5
I0512 20:47:14.403046  5089 net.cpp:107] Creating Layer inception_5a/5x5
I0512 20:47:14.403275  5089 net.cpp:455] inception_5a/5x5 <- inception_5a/5x5_reduce
I0512 20:47:14.403504  5089 net.cpp:412] inception_5a/5x5 -> inception_5a/5x5
I0512 20:47:14.404296  5089 net.cpp:151] Setting up inception_5a/5x5
I0512 20:47:14.404526  5089 net.cpp:158] Top shape: 8 128 7 7 (50176)
I0512 20:47:14.404770  5089 net.cpp:166] Memory required for data: 459372544
I0512 20:47:14.405000  5089 layer_factory.hpp:77] Creating layer inception_5a/relu_5x5
I0512 20:47:14.405212  5089 net.cpp:107] Creating Layer inception_5a/relu_5x5
I0512 20:47:14.405419  5089 net.cpp:455] inception_5a/relu_5x5 <- inception_5a/5x5
I0512 20:47:14.405624  5089 net.cpp:398] inception_5a/relu_5x5 -> inception_5a/5x5 (in-place)
I0512 20:47:14.405827  5089 net.cpp:151] Setting up inception_5a/relu_5x5
I0512 20:47:14.406046  5089 net.cpp:158] Top shape: 8 128 7 7 (50176)
I0512 20:47:14.406231  5089 net.cpp:166] Memory required for data: 459573248
I0512 20:47:14.406426  5089 layer_factory.hpp:77] Creating layer inception_5a/pool
I0512 20:47:14.406605  5089 net.cpp:107] Creating Layer inception_5a/pool
I0512 20:47:14.406777  5089 net.cpp:455] inception_5a/pool <- pool4/3x3_s2_pool4/3x3_s2_0_split_3
I0512 20:47:14.406980  5089 net.cpp:412] inception_5a/pool -> inception_5a/pool
I0512 20:47:14.407183  5089 net.cpp:151] Setting up inception_5a/pool
I0512 20:47:14.407398  5089 net.cpp:158] Top shape: 8 832 7 7 (326144)
I0512 20:47:14.407599  5089 net.cpp:166] Memory required for data: 460877824
I0512 20:47:14.407784  5089 layer_factory.hpp:77] Creating layer inception_5a/pool_proj
I0512 20:47:14.407979  5089 net.cpp:107] Creating Layer inception_5a/pool_proj
I0512 20:47:14.408167  5089 net.cpp:455] inception_5a/pool_proj <- inception_5a/pool
I0512 20:47:14.408361  5089 net.cpp:412] inception_5a/pool_proj -> inception_5a/pool_proj
I0512 20:47:14.409189  5089 net.cpp:151] Setting up inception_5a/pool_proj
I0512 20:47:14.409399  5089 net.cpp:158] Top shape: 8 128 7 7 (50176)
I0512 20:47:14.409617  5089 net.cpp:166] Memory required for data: 461078528
I0512 20:47:14.409808  5089 layer_factory.hpp:77] Creating layer inception_5a/relu_pool_proj
I0512 20:47:14.410032  5089 net.cpp:107] Creating Layer inception_5a/relu_pool_proj
I0512 20:47:14.410578  5089 net.cpp:455] inception_5a/relu_pool_proj <- inception_5a/pool_proj
I0512 20:47:14.410770  5089 net.cpp:398] inception_5a/relu_pool_proj -> inception_5a/pool_proj (in-place)
I0512 20:47:14.410975  5089 net.cpp:151] Setting up inception_5a/relu_pool_proj
I0512 20:47:14.411165  5089 net.cpp:158] Top shape: 8 128 7 7 (50176)
I0512 20:47:14.411360  5089 net.cpp:166] Memory required for data: 461279232
I0512 20:47:14.411571  5089 layer_factory.hpp:77] Creating layer inception_5a/output
I0512 20:47:14.411761  5089 net.cpp:107] Creating Layer inception_5a/output
I0512 20:47:14.411953  5089 net.cpp:455] inception_5a/output <- inception_5a/1x1
I0512 20:47:14.412145  5089 net.cpp:455] inception_5a/output <- inception_5a/3x3
I0512 20:47:14.412358  5089 net.cpp:455] inception_5a/output <- inception_5a/5x5
I0512 20:47:14.412576  5089 net.cpp:455] inception_5a/output <- inception_5a/pool_proj
I0512 20:47:14.412772  5089 net.cpp:412] inception_5a/output -> inception_5a/output
I0512 20:47:14.412981  5089 net.cpp:151] Setting up inception_5a/output
I0512 20:47:14.413175  5089 net.cpp:158] Top shape: 8 832 7 7 (326144)
I0512 20:47:14.413363  5089 net.cpp:166] Memory required for data: 462583808
I0512 20:47:14.413619  5089 layer_factory.hpp:77] Creating layer inception_5a/output_inception_5a/output_0_split
I0512 20:47:14.413877  5089 net.cpp:107] Creating Layer inception_5a/output_inception_5a/output_0_split
I0512 20:47:14.414175  5089 net.cpp:455] inception_5a/output_inception_5a/output_0_split <- inception_5a/output
I0512 20:47:14.414439  5089 net.cpp:412] inception_5a/output_inception_5a/output_0_split -> inception_5a/output_inception_5a/output_0_split_0
I0512 20:47:14.414662  5089 net.cpp:412] inception_5a/output_inception_5a/output_0_split -> inception_5a/output_inception_5a/output_0_split_1
I0512 20:47:14.414909  5089 net.cpp:412] inception_5a/output_inception_5a/output_0_split -> inception_5a/output_inception_5a/output_0_split_2
I0512 20:47:14.415163  5089 net.cpp:412] inception_5a/output_inception_5a/output_0_split -> inception_5a/output_inception_5a/output_0_split_3
I0512 20:47:14.415398  5089 net.cpp:151] Setting up inception_5a/output_inception_5a/output_0_split
I0512 20:47:14.415608  5089 net.cpp:158] Top shape: 8 832 7 7 (326144)
I0512 20:47:14.415797  5089 net.cpp:158] Top shape: 8 832 7 7 (326144)
I0512 20:47:14.416007  5089 net.cpp:158] Top shape: 8 832 7 7 (326144)
I0512 20:47:14.416183  5089 net.cpp:158] Top shape: 8 832 7 7 (326144)
I0512 20:47:14.416381  5089 net.cpp:166] Memory required for data: 467802112
I0512 20:47:14.416570  5089 layer_factory.hpp:77] Creating layer inception_5b/1x1
I0512 20:47:14.416770  5089 net.cpp:107] Creating Layer inception_5b/1x1
I0512 20:47:14.416961  5089 net.cpp:455] inception_5b/1x1 <- inception_5a/output_inception_5a/output_0_split_0
I0512 20:47:14.417153  5089 net.cpp:412] inception_5b/1x1 -> inception_5b/1x1
I0512 20:47:14.419003  5089 net.cpp:151] Setting up inception_5b/1x1
I0512 20:47:14.419203  5089 net.cpp:158] Top shape: 8 384 7 7 (150528)
I0512 20:47:14.419384  5089 net.cpp:166] Memory required for data: 468404224
I0512 20:47:14.419597  5089 layer_factory.hpp:77] Creating layer inception_5b/relu_1x1
I0512 20:47:14.419791  5089 net.cpp:107] Creating Layer inception_5b/relu_1x1
I0512 20:47:14.419991  5089 net.cpp:455] inception_5b/relu_1x1 <- inception_5b/1x1
I0512 20:47:14.420176  5089 net.cpp:398] inception_5b/relu_1x1 -> inception_5b/1x1 (in-place)
I0512 20:47:14.420362  5089 net.cpp:151] Setting up inception_5b/relu_1x1
I0512 20:47:14.420572  5089 net.cpp:158] Top shape: 8 384 7 7 (150528)
I0512 20:47:14.420783  5089 net.cpp:166] Memory required for data: 469006336
I0512 20:47:14.420995  5089 layer_factory.hpp:77] Creating layer inception_5b/3x3_reduce
I0512 20:47:14.421231  5089 net.cpp:107] Creating Layer inception_5b/3x3_reduce
I0512 20:47:14.421433  5089 net.cpp:455] inception_5b/3x3_reduce <- inception_5a/output_inception_5a/output_0_split_1
I0512 20:47:14.421687  5089 net.cpp:412] inception_5b/3x3_reduce -> inception_5b/3x3_reduce
I0512 20:47:14.422770  5089 net.cpp:151] Setting up inception_5b/3x3_reduce
I0512 20:47:14.423036  5089 net.cpp:158] Top shape: 8 192 7 7 (75264)
I0512 20:47:14.423208  5089 net.cpp:166] Memory required for data: 469307392
I0512 20:47:14.423430  5089 layer_factory.hpp:77] Creating layer inception_5b/relu_3x3_reduce
I0512 20:47:14.423648  5089 net.cpp:107] Creating Layer inception_5b/relu_3x3_reduce
I0512 20:47:14.423844  5089 net.cpp:455] inception_5b/relu_3x3_reduce <- inception_5b/3x3_reduce
I0512 20:47:14.424044  5089 net.cpp:398] inception_5b/relu_3x3_reduce -> inception_5b/3x3_reduce (in-place)
I0512 20:47:14.424240  5089 net.cpp:151] Setting up inception_5b/relu_3x3_reduce
I0512 20:47:14.424433  5089 net.cpp:158] Top shape: 8 192 7 7 (75264)
I0512 20:47:14.424613  5089 net.cpp:166] Memory required for data: 469608448
I0512 20:47:14.424836  5089 layer_factory.hpp:77] Creating layer inception_5b/3x3
I0512 20:47:14.425163  5089 net.cpp:107] Creating Layer inception_5b/3x3
I0512 20:47:14.425423  5089 net.cpp:455] inception_5b/3x3 <- inception_5b/3x3_reduce
I0512 20:47:14.425652  5089 net.cpp:412] inception_5b/3x3 -> inception_5b/3x3
I0512 20:47:14.429270  5089 net.cpp:151] Setting up inception_5b/3x3
I0512 20:47:14.429534  5089 net.cpp:158] Top shape: 8 384 7 7 (150528)
I0512 20:47:14.429811  5089 net.cpp:166] Memory required for data: 470210560
I0512 20:47:14.430090  5089 layer_factory.hpp:77] Creating layer inception_5b/relu_3x3
I0512 20:47:14.430352  5089 net.cpp:107] Creating Layer inception_5b/relu_3x3
I0512 20:47:14.430627  5089 net.cpp:455] inception_5b/relu_3x3 <- inception_5b/3x3
I0512 20:47:14.430958  5089 net.cpp:398] inception_5b/relu_3x3 -> inception_5b/3x3 (in-place)
I0512 20:47:14.431265  5089 net.cpp:151] Setting up inception_5b/relu_3x3
I0512 20:47:14.431707  5089 net.cpp:158] Top shape: 8 384 7 7 (150528)
I0512 20:47:14.432010  5089 net.cpp:166] Memory required for data: 470812672
I0512 20:47:14.432256  5089 layer_factory.hpp:77] Creating layer inception_5b/5x5_reduce
I0512 20:47:14.432497  5089 net.cpp:107] Creating Layer inception_5b/5x5_reduce
I0512 20:47:14.432703  5089 net.cpp:455] inception_5b/5x5_reduce <- inception_5a/output_inception_5a/output_0_split_2
I0512 20:47:14.432925  5089 net.cpp:412] inception_5b/5x5_reduce -> inception_5b/5x5_reduce
I0512 20:47:14.433385  5089 net.cpp:151] Setting up inception_5b/5x5_reduce
I0512 20:47:14.433588  5089 net.cpp:158] Top shape: 8 48 7 7 (18816)
I0512 20:47:14.433791  5089 net.cpp:166] Memory required for data: 470887936
I0512 20:47:14.433990  5089 layer_factory.hpp:77] Creating layer inception_5b/relu_5x5_reduce
I0512 20:47:14.434182  5089 net.cpp:107] Creating Layer inception_5b/relu_5x5_reduce
I0512 20:47:14.434373  5089 net.cpp:455] inception_5b/relu_5x5_reduce <- inception_5b/5x5_reduce
I0512 20:47:14.434598  5089 net.cpp:398] inception_5b/relu_5x5_reduce -> inception_5b/5x5_reduce (in-place)
I0512 20:47:14.434798  5089 net.cpp:151] Setting up inception_5b/relu_5x5_reduce
I0512 20:47:14.435003  5089 net.cpp:158] Top shape: 8 48 7 7 (18816)
I0512 20:47:14.435200  5089 net.cpp:166] Memory required for data: 470963200
I0512 20:47:14.435413  5089 layer_factory.hpp:77] Creating layer inception_5b/5x5
I0512 20:47:14.435622  5089 net.cpp:107] Creating Layer inception_5b/5x5
I0512 20:47:14.435829  5089 net.cpp:455] inception_5b/5x5 <- inception_5b/5x5_reduce
I0512 20:47:14.436081  5089 net.cpp:412] inception_5b/5x5 -> inception_5b/5x5
I0512 20:47:14.437196  5089 net.cpp:151] Setting up inception_5b/5x5
I0512 20:47:14.437489  5089 net.cpp:158] Top shape: 8 128 7 7 (50176)
I0512 20:47:14.437711  5089 net.cpp:166] Memory required for data: 471163904
I0512 20:47:14.437955  5089 layer_factory.hpp:77] Creating layer inception_5b/relu_5x5
I0512 20:47:14.438184  5089 net.cpp:107] Creating Layer inception_5b/relu_5x5
I0512 20:47:14.438426  5089 net.cpp:455] inception_5b/relu_5x5 <- inception_5b/5x5
I0512 20:47:14.438666  5089 net.cpp:398] inception_5b/relu_5x5 -> inception_5b/5x5 (in-place)
I0512 20:47:14.438895  5089 net.cpp:151] Setting up inception_5b/relu_5x5
I0512 20:47:14.439113  5089 net.cpp:158] Top shape: 8 128 7 7 (50176)
I0512 20:47:14.439293  5089 net.cpp:166] Memory required for data: 471364608
I0512 20:47:14.439481  5089 layer_factory.hpp:77] Creating layer inception_5b/pool
I0512 20:47:14.439695  5089 net.cpp:107] Creating Layer inception_5b/pool
I0512 20:47:14.439883  5089 net.cpp:455] inception_5b/pool <- inception_5a/output_inception_5a/output_0_split_3
I0512 20:47:14.440091  5089 net.cpp:412] inception_5b/pool -> inception_5b/pool
I0512 20:47:14.440294  5089 net.cpp:151] Setting up inception_5b/pool
I0512 20:47:14.440505  5089 net.cpp:158] Top shape: 8 832 7 7 (326144)
I0512 20:47:14.440692  5089 net.cpp:166] Memory required for data: 472669184
I0512 20:47:14.440887  5089 layer_factory.hpp:77] Creating layer inception_5b/pool_proj
I0512 20:47:14.441083  5089 net.cpp:107] Creating Layer inception_5b/pool_proj
I0512 20:47:14.441251  5089 net.cpp:455] inception_5b/pool_proj <- inception_5b/pool
I0512 20:47:14.441444  5089 net.cpp:412] inception_5b/pool_proj -> inception_5b/pool_proj
I0512 20:47:14.442203  5089 net.cpp:151] Setting up inception_5b/pool_proj
I0512 20:47:14.442400  5089 net.cpp:158] Top shape: 8 128 7 7 (50176)
I0512 20:47:14.442580  5089 net.cpp:166] Memory required for data: 472869888
I0512 20:47:14.442860  5089 layer_factory.hpp:77] Creating layer inception_5b/relu_pool_proj
I0512 20:47:14.443063  5089 net.cpp:107] Creating Layer inception_5b/relu_pool_proj
I0512 20:47:14.443267  5089 net.cpp:455] inception_5b/relu_pool_proj <- inception_5b/pool_proj
I0512 20:47:14.443456  5089 net.cpp:398] inception_5b/relu_pool_proj -> inception_5b/pool_proj (in-place)
I0512 20:47:14.443646  5089 net.cpp:151] Setting up inception_5b/relu_pool_proj
I0512 20:47:14.443832  5089 net.cpp:158] Top shape: 8 128 7 7 (50176)
I0512 20:47:14.444008  5089 net.cpp:166] Memory required for data: 473070592
I0512 20:47:14.444176  5089 layer_factory.hpp:77] Creating layer inception_5b/output
I0512 20:47:14.444361  5089 net.cpp:107] Creating Layer inception_5b/output
I0512 20:47:14.444545  5089 net.cpp:455] inception_5b/output <- inception_5b/1x1
I0512 20:47:14.444756  5089 net.cpp:455] inception_5b/output <- inception_5b/3x3
I0512 20:47:14.444934  5089 net.cpp:455] inception_5b/output <- inception_5b/5x5
I0512 20:47:14.445127  5089 net.cpp:455] inception_5b/output <- inception_5b/pool_proj
I0512 20:47:14.445313  5089 net.cpp:412] inception_5b/output -> inception_5b/output
I0512 20:47:14.445497  5089 net.cpp:151] Setting up inception_5b/output
I0512 20:47:14.445696  5089 net.cpp:158] Top shape: 8 1024 7 7 (401408)
I0512 20:47:14.445876  5089 net.cpp:166] Memory required for data: 474676224
I0512 20:47:14.446069  5089 layer_factory.hpp:77] Creating layer pool5/7x7_s1
I0512 20:47:14.446252  5089 net.cpp:107] Creating Layer pool5/7x7_s1
I0512 20:47:14.446436  5089 net.cpp:455] pool5/7x7_s1 <- inception_5b/output
I0512 20:47:14.446643  5089 net.cpp:412] pool5/7x7_s1 -> pool5/7x7_s1
I0512 20:47:14.446830  5089 net.cpp:151] Setting up pool5/7x7_s1
I0512 20:47:14.447003  5089 net.cpp:158] Top shape: 8 1024 1 1 (8192)
I0512 20:47:14.447214  5089 net.cpp:166] Memory required for data: 474708992
I0512 20:47:14.447592  5089 layer_factory.hpp:77] Creating layer pool5/drop_7x7_s1
I0512 20:47:14.447835  5089 net.cpp:107] Creating Layer pool5/drop_7x7_s1
I0512 20:47:14.448060  5089 net.cpp:455] pool5/drop_7x7_s1 <- pool5/7x7_s1
I0512 20:47:14.448312  5089 net.cpp:398] pool5/drop_7x7_s1 -> pool5/7x7_s1 (in-place)
I0512 20:47:14.448534  5089 net.cpp:151] Setting up pool5/drop_7x7_s1
I0512 20:47:14.448751  5089 net.cpp:158] Top shape: 8 1024 1 1 (8192)
I0512 20:47:14.448941  5089 net.cpp:166] Memory required for data: 474741760
I0512 20:47:14.449142  5089 layer_factory.hpp:77] Creating layer loss3/classifier_dtw
I0512 20:47:14.449364  5089 net.cpp:107] Creating Layer loss3/classifier_dtw
I0512 20:47:14.449573  5089 net.cpp:455] loss3/classifier_dtw <- pool5/7x7_s1
I0512 20:47:14.449787  5089 net.cpp:412] loss3/classifier_dtw -> loss3/classifier_dtw
I0512 20:47:14.451329  5089 net.cpp:151] Setting up loss3/classifier_dtw
I0512 20:47:14.451529  5089 net.cpp:158] Top shape: 8 256 (2048)
I0512 20:47:14.451732  5089 net.cpp:166] Memory required for data: 474749952
I0512 20:47:14.451937  5089 layer_factory.hpp:77] Creating layer loss3/reshape
I0512 20:47:14.452138  5089 net.cpp:107] Creating Layer loss3/reshape
I0512 20:47:14.452327  5089 net.cpp:455] loss3/reshape <- loss3/classifier_dtw
I0512 20:47:14.452525  5089 net.cpp:412] loss3/reshape -> loss3/reshape
I0512 20:47:14.452723  5089 net.cpp:151] Setting up loss3/reshape
I0512 20:47:14.452913  5089 net.cpp:158] Top shape: 8 1 16 16 (2048)
I0512 20:47:14.453099  5089 net.cpp:166] Memory required for data: 474758144
I0512 20:47:14.453290  5089 layer_factory.hpp:77] Creating layer loss3/reshape_loss3/reshape_0_split
I0512 20:47:14.453490  5089 net.cpp:107] Creating Layer loss3/reshape_loss3/reshape_0_split
I0512 20:47:14.453671  5089 net.cpp:455] loss3/reshape_loss3/reshape_0_split <- loss3/reshape
I0512 20:47:14.453881  5089 net.cpp:412] loss3/reshape_loss3/reshape_0_split -> loss3/reshape_loss3/reshape_0_split_0
I0512 20:47:14.454108  5089 net.cpp:412] loss3/reshape_loss3/reshape_0_split -> loss3/reshape_loss3/reshape_0_split_1
I0512 20:47:14.454308  5089 net.cpp:151] Setting up loss3/reshape_loss3/reshape_0_split
I0512 20:47:14.454499  5089 net.cpp:158] Top shape: 8 1 16 16 (2048)
I0512 20:47:14.454696  5089 net.cpp:158] Top shape: 8 1 16 16 (2048)
I0512 20:47:14.454905  5089 net.cpp:166] Memory required for data: 474774528
I0512 20:47:14.455107  5089 layer_factory.hpp:77] Creating layer predict_loss
I0512 20:47:14.455320  5089 net.cpp:107] Creating Layer predict_loss
I0512 20:47:14.455512  5089 net.cpp:455] predict_loss <- loss3/reshape_loss3/reshape_0_split_0
I0512 20:47:14.455685  5089 net.cpp:455] predict_loss <- label_patch_transformer1_1_split_0
…
